models/chess_model.pth (torch, 108469 bytes, 13 tensors)

fc1.weight f4 [128, 64]
00000000: 0f99 3abf b24b abbd c252 0ebc a042 a5be
00000010: 39a3 0dbe 04df e0be 3985 a8be 27a2 123e
00000020: 91b3 8f3d f2e1 733d 1892 a93e 49e7 84bc
00000030: 7dda 443e 113e f3be de83 923e 4a5a c0bd
00000040: ed0d 1cbb 0983 3bbe 93e5 313c 95e7 23bd
00000050: 1791 74be 0a62 e53c 1c0b 9abe c847 acbc
00000060: f3ef 2fbe 56dc 21bd 1783 1cbe 2d00 88be
00000070: fa66 68be deb9 23be 95df b2be 300d e2be
00000080: 8417 513e d1aa 76bd 456b e53d ce42 0d3e
00000090: 3962 96be 2600 4e3c d6f6 90bc 871b b23d
000000a0: 3a52 45bd 8a94 dfbc 0e9c 313e a746 723e
000000b0: e73d 10bc 354b 18bd 368c 1fbe aa08 a43e
000000c0: 8847 cebe 5083 263b 6937 b23d b514 0bbe
000000d0: 347a e4bc 1ff2 a43e 5b16 bd3b 1549 683b
000000e0: 48ba bcbd 0d05 2f3e 506c d3bd 093c ef3a
000000f0: 3a94 aebe c6aa 893d 080b 043e 24c0 dcbd
00000100: f165 fb3d abb4 ecbd 7626 cbbe ca07 89bd
00000110: 9845 49be f262 15be 9dfa 2bbe ff6c 263e
00000120: 7a32 d63c d77e f33e 391d 1e3d 3e0f 963e
00000130: 1945 dc3e 71e2 283e 5100 7ebe 12a1 bc3e
00000140: dd5c 1c3e b969 643e 0022 40be a9eb 1e3e
00000150: 37b5 80bc 3be3 e13d a448 303e 6da4 363c
00000160: 54c5 bebe c611 72bd ea9b ff3d 7fff 03be
00000170: 8eb8 523e f2ca bc3d 0bc1 cd3d bb81 263d
00000180: ba24 70be 4018 35bd 8a26 28be f43f cc3d
00000190: 1a85 473e 708a 0a3e 74c5 203d af7f ec3d
000001a0: 1a53 573e 210e 4cbe 5f8e 523e 5753 44be
000001b0: 8f9b 23bd bdfa 993d 703d c33d 9163 54be
000001c0: 6b84 3f3d 8eee cf3e 3aa5 cebd 933f f63c
000001d0: a550 12bd 34e7 a53e de54 3b3e 6af4 f1bd
000001e0: 79b4 edbd 1a11 853d c26a 1fbe 81f3 273e
000001f0: b9e7 fb3d 0441 85be f204 b0be 98e9 a1be
00000200: 3f72 793e 7cab 2e3d b765 7a3e ac0b 8dbd
00000210: fd4a 793d 9591 913e 921e 1fbd 7224 843e
00000220: b5f4 d2be e2de 06bf 120b dbbe fa60 d73c
00000230: d6c0 693e 2241 09bd 4bca 8b3c 1db2 93be
00000240: e618 363e 21c5 05bf 6379 9e3d 24e6 d93d
00000250: 138f 0e3e ad64 1c3e 1911 023e 0e01 233e
00000260: 106e d8bc 4bf1 a83c 4c82 54bd eaf8 c43e
00000270: 1221 183e 175a f7bc 8e86 fc3d daac d1bd
00000280: c512 05be 7ba3 ed3c c39c 053e 49f2 7e3d
00000290: 7e83 a33d 9134 72be 8fae a13c 03b8 2dbf
000002a0: b8e0 05bd c2f6 01be da6a 02be 6f63 323e
000002b0: e8b5 b93d 3413 8cbd 6d3a 10be 511a fbbe
000002c0: ef63 5abd 151b 38be ee49 28bc d6de febd
000002d0: 1dd2 153e d27b 483d 35d5 ecbc 5696 b83e
000002e0: 1b7c 7c3e 0f1e 5a3e 6e14 813e fd29 ba3e
000002f0: 36d1 813e 7aaa a83d 0b2d d33d 2028 8e3e
00000300: 6fd7 873e e48c a53e 095a b4be cafa 58be
00000310: ef1e 0ebe afb9 933e 9d95 ab3e 3c02 8e3d
00000320: b190 dd3d 20df 54bd 0e85 03be 2054 b53e
00000330: 3a09 ecbd 53c0 8b3e c098 efbd 678f c6bd
00000340: b6ab e63e b0ca da3d 33ec 23bf 38b0 eebe
00000350: ec7e b53d 492c 83be 7864 1fbe 5191 69be
00000360: e12f c2be 3ca1 0a3d 9fb1 0dbe f5ef 8a3d
00000370: 3546 5ebd c23e 2fbe 25c2 0c3e 9159 ad3e
00000380: ca0f fc3d e74e eebd 44cd d8bc b533 4bbe
00000390: a3a2 213e 32d7 97bd 0caa 603e c39c 913e
000003a0: 283e f8bd 6377 22bd 5876 303e fa1e 78be
000003b0: 35c5 5abe b1f2 babc b165 da3d 9015 3a3e
000003c0: d12f ff3d b21d 073e debd 0a3e 0aa6 b6bd
000003d0: 8876 02be 8a43 cc3d 9a98 14bd a9cd 803e
000003e0: c931 8bbe 7401 01be 11a6 833d 1c56 7f3d
000003f0: f8fe 1bbd cad0 e93d 2b1c 9e3e e2d8 b4be
-0.728898 -0.08364047 -0.008686723 -0.32277393 -0.13831796 -0.43920147 -0.3291414 0.14319669
0.070166714 0.05954165 0.33119273 -0.016223567 0.19223972 -0.4750829 0.28616232 -0.09392221
-0.0023812011 -0.18311705 0.010857957 -0.040015776 -0.23883472 0.02800085 -0.300866 -0.021030322
-0.17181377 -0.03951677 -0.15284382 -0.26562634 -0.22695532 -0.15988871 -0.34936205 -0.44150686
0.20419127 -0.060221497 0.11202101 0.13795015 -0.29371813 0.012573278 -0.017695826 0.08696657
-0.04817412 -0.027292509 0.17344686 0.23659764 -0.008803821 -0.037181098 -0.1558083 0.3203786
-0.4028895 0.0025407858 0.08701975 -0.13582118 -0.027890302 0.32215974 0.0057704872 0.003544395
-0.09215218 0.1709177 -0.10323393 0.0018252145 -0.34097463 0.067220256 0.12894833 -0.107788354
0.12275303 -0.11557897 -0.3967778 -0.06690939 -0.19655454 -0.14588526 -0.1679482 0.16252516
0.026147116 0.4755771 0.038602088 0.29308504 0.43021467 0.1649263 -0.24804808 0.36841637
0.152698 0.22305955 -0.1876297 0.15519585 -0.01571141 0.11029669 0.1721521 0.011147601
-0.37259924 -0.05909898 0.1248091 -0.12890433 0.20578215 0.09218396 0.10046586 0.040651064
-0.2345151 -0.04421258 -0.16420951 0.099731356 0.19484368 0.13529372 0.039250806 0.11547791
0.21027794 -0.19927265 0.20562123 -0.19172417 -0.039943274 0.07518528 0.09533203 -0.20741107
0.046757143 0.4061169 -0.10090108 0.030059611 -0.03572144 0.32402956 0.18294093 -0.118141964
-0.11606688 0.064974025 -0.15568069 0.16401483 0.12300057 -0.26026165 -0.34378773 -0.3162353
0.24359988 0.04264401 0.24452864 -0.06886992 0.06086253 0.28431383 -0.038847513 0.25809056
-0.41202322 -0.5268384 -0.42781883 0.02629136 0.22827467 -0.03350938 0.017064234 -0.28846827
0.17782936 -0.5225392 0.077379964 0.10639599 0.13921766 0.1527278 0.12701835 0.15918371
-0.02641967 0.02062287 -0.051882073 0.38471156 0.14856365 -0.030194325 0.12330352 -0.10238047
-0.12995441 0.029008618 0.13048081 0.06224278 0.079840645 -0.23652865 0.019736556 -0.67858905
-0.03268501 -0.12691787 -0.12736073 0.17420743 0.09067899 -0.068396 -0.14084788 -0.49043515
-0.05331796 -0.17979081 -0.010271532 -0.12444846 0.14630933 0.04894621 -0.028910259 0.36052197
0.24656717 0.21300529 0.252109 0.3636016 0.25354928 0.08235641 0.10311326 0.27764988
0.2653155 0.32334054 -0.3522494 -0.21189418 -0.13878988 0.28852603 0.33512583 0.0693402
0.10818613 -0.0519706 -0.12843725 0.35415745 -0.11525197 0.2729517 -0.116990566 -0.096953206
0.4505288 0.10683191 -0.64032286 -0.4661882 0.08862099 -0.25619724 -0.1556567 -0.2280934
-0.37927154 0.03384517 -0.13837288 0.067840494 -0.054266173 -0.17113784 0.13745935 0.33857396
0.12307699 -0.11636143 -0.026465066 -0.19843943 0.15784697 -0.07414092 0.21939868 0.28439912
-0.1212123 -0.039664637 0.17232645 -0.24230567 -0.21364291 -0.022820802 0.10663927 0.18172288
0.12460292 0.13194922 0.13548991 -0.08918388 -0.12740529 0.099738196 -0.036278345 0.25156906
-0.2718642 -0.1259821 0.06428159 0.06233798 -0.038084954 0.114167765 0.30880865 -0.35321718

fc1.bias f4 [128]
00000000: 5f90 dfbd d8b2 b4bd 952d 3ebb 22cb 6fbd
00000010: 7b4e bb3d 3487 3bbd 1d39 c8bd eb11 b7bd
00000020: 1f5d 163d 8080 9a3d 8dd3 2abd b6a6 e13c
00000030: ba01 82bd 3dc4 7dbd a584 0fbc 4727 a8bb
00000040: 884b 15bd e68a a7bd 117f 133c dc90 7d3d
00000050: 6975 b33c 3662 02bd 3975 6f3d d660 483d
00000060: 9f4b f0bd ead7 84bd c683 febc 4fad 1fbb
00000070: d2ed 983d 1dfb b3bd 4416 b3bc cdf4 96bd
00000080: d719 f6bd 1f57 dd3d 796e 8e3d 7764 f9bd
00000090: 3a48 be3d 4c64 3d3c 8f98 edbd 8c7a f53d
000000a0: 30fc 5e3d 7d5c c3bc 826b b4bd 8aff a3bd
000000b0: ae67 bfbd b386 083d a958 ecbc 49b9 e33d
000000c0: 73c6 263d dafc dcbd 2c01 313d c981 953d
000000d0: 9bf6 cb3d 3f72 0fbd ac42 bb3d 28a4 98bd
000000e0: 1aa3 1cbd e70d d63d 08fe 8bbd 6e55 ec3d
000000f0: 4e1b 373d a0fb bfbd 812f ddbd bd32 223d
00000100: d489 943d e763 503b 2a2f 62bc 44bd 9d3c
00000110: be3a 9ebd 400b 0dbd eed6 f93c 6880 00be
00000120: bb81 a53d fb4a 04bd 8b3f 283d 74c8 e13b
00000130: 53e5 f7bd 739a 183d bcae b5bd d51e d43d
00000140: 30a8 75bb 68da 11bd f29f 793d 926d fe3c
00000150: 06d6 4f3c 68d2 82bd e03c bfbc c007 f2bc
00000160: 98e8 2bbb d6d1 9bbd 2e9d 793d 4f88 a9bd
00000170: 2541 933d 41ae 71bd 8816 bfbd 746f 653d
00000180: 449f b73d 8f63 68bd 10e6 88bd 81ca a13d
00000190: 15ca 043d 1fe8 dcbd b955 09bd 90b5 be3d
000001a0: d7dc 973d 819c 83bd 3e8a d8bd a721 a23d
000001b0: 2c4e 423d 80cd 333d 22bc 513d 9e5f a13d
000001c0: 74e8 fdbd a0a0 713d e95c 8e3c f811 fb3c
000001d0: 9bca e63d 0db6 df3d f1de afbd b7d0 dfbd
000001e0: a0d5 e4bc 5731 ca3c db9a f7bb 99b4 b9ba
000001f0: 6296 da3c 3ca6 73bd ef8f e3bd 4caf a43b
-0.109162085 -0.08823174 -0.0029018868 -0.058543332 0.09145828 -0.045783237 -0.097765185 -0.089389645
0.0367099 0.07544041 -0.041705657 0.027545314 -0.063479856 -0.061954726 -0.008759652 -0.0051316353
-0.036448985 -0.0818079 0.009002463 0.061905727 0.021906571 -0.031831942 0.0584614 0.048920475
-0.117331736 -0.06486495 -0.031068694 -0.0024364775 0.074672356 -0.087881304 -0.021861203 -0.07370911
-0.12016647 0.10807633 0.06954665 -0.12177365 0.0929112 0.011559557 -0.11601364 0.119862646
0.054439723 -0.023847813 -0.08809568 -0.080077246 -0.09345947 0.033331584 -0.02885087 0.11119325
0.0407166 -0.10790415 0.04321401 0.07300145 0.09959146 -0.035021063 0.09143576 -0.07453185
-0.038241483 0.104518704 -0.06835562 0.11539732 0.044703774 -0.093741655 -0.10800076 0.03959917
0.07252851 0.0031797828 -0.01380519 0.019255288 -0.07726048 -0.034434557 0.030497994 -0.12548983
0.08081385 -0.03229807 0.041076224 0.006890351 -0.12104287 0.03725667 -0.088712186 0.10357443
-0.003748428 -0.03560868 0.06094355 0.031058107 0.0126853045 -0.06387788 -0.023344457 -0.029544711
-0.0026231166 -0.076083824 0.060940914 -0.08277952 0.0719016 -0.059004072 -0.09330469 0.056014493
0.089659244 -0.05673557 -0.06684506 0.07899953 0.032419283 -0.10786461 -0.033529017 0.09311974
0.07415169 -0.06426335 -0.105732426 0.07916575 0.04743783 0.043897152 0.051204808 0.07879566
-0.123978525 0.058991075 0.017378287 0.030648217 0.11269113 0.10923395 -0.085874446 -0.10928481
-0.027933896 0.02468173 -0.007556302 -0.0014168202 0.026683036 -0.059484705 -0.111114375 0.00502578

bn1.weight f4 [128]
00000000: 339c 6e3f 41a7 623f 4e86 b33f 883b 483f
00000010: 305d 963f 5a1a 6e3f a87b 973f 628a 873f
00000020: aa9d 543f 88aa 763f 3491 713f e572 613f
00000030: e08b 703f 75a9 7a3f 61b3 a33f fa46 9c3f
00000040: 7f2d 8d3f 32fe 6d3f 1634 aa3f 6e97 613f
00000050: f7b6 6b3f dd2e 8e3f 98da 7a3f b6a2 ac3f
00000060: 1b67 a13f 2e95 a23f 075e a63f 5b9d 553f
00000070: cd79 9c3f 5a0c 683f b07c 6c3f 49bb 7b3f
00000080: 9a69 833f a93c 993f 945e 523f e9d5 a53f
00000090: f0a1 8a3f f329 573f 42c8 3e3f e579 883f
000000a0: a22c 803f 40c3 823f 839b a03f cf1f 4e3f
000000b0: e318 6d3f a406 3b3f 6ca3 493f 9d74 763f
000000c0: 1054 953f a98a 3a3f 81c4 6c3f 17d3 763f
000000d0: 193a 8c3f d371 5d3f cfc8 9c3f b3dc a13f
000000e0: 2a5d 403f 99ab 443f 8ba9 633f 5bd7 8d3f
000000f0: 2e11 4b3f aa50 5c3f 728f 6b3f b2e6 793f
00000100: faf8 993f 8d02 5c3f 76c8 813f 10d3 553f
00000110: 7831 5c3f b8e9 463f 09f7 6b3f 3228 743f
00000120: 497d 583f de8f 8d3f 96eb 673f 9363 8a3f
00000130: 7cc7 563f 5e16 893f 7e25 7e3f 18cc 7b3f
00000140: 2ffa 963f d721 813f 7e99 7e3f 60e6 413f
00000150: 39d1 4e3f bf1f 8d3f 2063 863f 4c3d 823f
00000160: fe36 553f 2e68 543f ce98 633f 6e1d 803f
00000170: cb61 763f 6342 963f fdbc 733f bd80 623f
00000180: 9019 6c3f 97f8 5e3f 932b 553f 42d1 933f
00000190: a358 8f3f edc4 793f 5368 5f3f c397 843f
000001a0: 698c 723f 181a 3f3f 9d51 6c3f 1c68 6b3f
000001b0: 735f 663f b874 5b3f 388a 4d3f 5401 473f
000001c0: 62ff 7f3f 3019 783f 890d 803f 4975 953f
000001d0: 3b55 553f 19c5 783f b3fa 8f3f 2403 943f
000001e0: 87ca 3f3f 99f4 573f b97a 463f fa27 9a3f
000001f0: 4238 483f b2be 963f 179a 7e3f 7908 803f
0.9320709 0.8853646 1.4025362 0.7821584 1.1747189 0.9300896 1.1834612 1.0589106
0.83053076 0.9635396 0.9436219 0.8806594 0.9396343 0.9791482 1.2789117 1.220916
1.1029509 0.92965996 1.3297145 0.8812169 0.9207606 1.1108052 0.979898 1.3487155
1.260959 1.2701776 1.2997445 0.8344323 1.2224671 0.90643847 0.9237776 0.9833265
1.0266602 1.1971637 0.82175565 1.2955905 1.0830669 0.84048384 0.7452432 1.0662199
1.0013621 1.0215836 1.2547458 0.80517286 0.926161 0.7305701 0.78764987 0.9627169
1.1666279 0.7286783 0.9248734 0.9641585 1.095523 0.86501807 1.2248782 1.2645477
0.7514216 0.7682434 0.8893058 1.1081346 0.7932309 0.86060584 0.92015755 0.9761764
1.2029107 0.8594139 1.0139301 0.8352518 0.86012983 0.77700377 0.9217382 0.95373833
0.8456617 1.105953 0.9059385 1.0811638 0.8389814 1.0709951 0.9927596 0.983583
1.17951 1.0088452 0.9945296 0.7574215 0.80788 1.1025313 1.0499 1.0174956
0.83287036 0.82971466 0.88905036 1.0008981 0.9624297 1.173901 0.9521025 0.8847769
0.92226505 0.8709807 0.83269614 1.1548235 1.1198925 0.9756611 0.8726856 1.0358814
0.947455 0.7464919 0.9231203 0.91955733 0.89989394 0.85724974 0.8028903 0.777364
0.9999906 0.96913433 1.0004131 1.1676418 0.83333176 0.9717575 1.1248382 1.1563458
0.7491841 0.843576 0.7753101 1.204345 0.7821084 1.1776946 0.9945387 1.0002586

bn1.bias f4 [128]
00000000: 15ac 99be 21a8 a5be da6c ccbe b2ac 94be
00000010: 8760 ebbe 2a63 9cbe c774 b6be 6053 e7bd
00000020: d40c b8be fb36 69be ea5f 32be 438c 01be
00000030: 6ecb 86be 22bc 86bc 9ccd 0bbf 3097 8abe
00000040: 53ad c9be c2bd 84be 596d e6bd d72f afbe
00000050: c4f0 0bbe 783f 91be bb05 ddbe 13b5 e5be
00000060: 99f7 87be 9d73 20bf d8e3 06bf 0a03 e0be
00000070: a5a2 0dbf 9524 bebe 8a7c 1abe d2c8 dabe
00000080: e2a6 9cbd 8806 c1be ab66 cdbe 277f 39be
00000090: 5512 2ebf 70d7 08bf 9b7e 79be af1f 9ebe
000000a0: 69ce d6be 5c42 9abe dd69 09bf edde a8be
000000b0: c364 87be e3c1 4fbe 257e 4ebe ccec 77be
000000c0: 59fc 1bbf 4ea5 b0be 7ceb 88be fab5 c4b9
000000d0: e8a7 46be 7b2b bebe 866a 1abf 7195 f0be
000000e0: 73fe a9be fec9 b7be f82d 4f3d 536b d4be
000000f0: a67b 8dbe 72d3 1abe 128f e0be a80e b5be
00000100: 2e3a 12be e672 18be 13f1 e7be ca98 9ebe
00000110: e089 b1be 29da a4bd ce58 e3be 7ac2 58be
00000120: 324e 9bbe b3a6 95be 38bf 36be de80 38be
00000130: d2ca ccbe 503c dfbe cd20 70be a5de a1be
00000140: 346f f3be de45 8fbe 7628 a1be f9c9 d1be
00000150: 534b 98be 7b46 03bf 9382 9cbe bfaa f4be
00000160: ac0d e6be e802 0cbe 4373 babe dab4 10be
00000170: 23f4 6dbe 4f48 08bf 6acb 95be daec 91be
00000180: 39da d6be 4a21 adbd 8a15 17be eb36 03bf
00000190: 1223 1dbf 56e3 a8be 1fb8 ccbe 1cf1 0bbe
000001a0: 4fb4 88be a452 7cbe f8ec 5fbe f8e8 0cbe
000001b0: e441 d8be 5c4f 96be 4b41 51be 0e84 a9be
000001c0: b8e2 b1be 9965 2cbe e160 d7be 03f2 08be
000001d0: 8c3c a2be e9c7 c4be 8f8d 83be 9b3e 3abe
000001e0: de11 34be b307 aabe d675 f7be 14fe 05bf
000001f0: 325e 91be a861 87be 7771 abbe a6bc 8bbe
-0.300141 -0.32354835 -0.39926797 -0.29038006 -0.45972082 -0.30544406 -0.3563597 -0.112951994
-0.35947287 -0.2277488 -0.17419401 -0.12651162 -0.2632708 -0.01644713 -0.5461061 -0.27068472
-0.39390048 -0.25926024 -0.11251325 -0.34216186 -0.13666064 -0.28368735 -0.43168435 -0.4486471
-0.2655609 -0.6267641 -0.5269141 -0.4375232 -0.553263 -0.37137285 -0.1508657 -0.4273134
-0.07649018 -0.37700295 -0.40117392 -0.18114911 -0.6799672 -0.5345373 -0.24364702 -0.30883548
-0.41954353 -0.30128753 -0.5367716 -0.3298258 -0.26444063 -0.20288806 -0.20165308 -0.24211425
-0.60931927 -0.34501117 -0.2674216 -0.00037519616 -0.19399989 -0.37142548 -0.6031879 -0.46989015
-0.33201942 -0.35896295 0.05058095 -0.41488132 -0.276334 -0.15119722 -0.43859154 -0.35362744
-0.14280006 -0.1488758 -0.45301113 -0.30975944 -0.34675503 -0.08049423 -0.4440369 -0.21167937
-0.30333096 -0.29228744 -0.17846382 -0.18017909 -0.3999849 -0.43600702 -0.23450013 -0.31615177
-0.4754578 -0.27982992 -0.31476182 -0.40974405 -0.29744968 -0.5127942 -0.3056837 -0.4778652
-0.44932306 -0.13672984 -0.36416063 -0.1413149 -0.23237662 -0.53235334 -0.29256755 -0.28501016
-0.41963366 -0.08453615 -0.1475431 -0.51255673 -0.6138164 -0.32985944 -0.39984223 -0.13666195
-0.26700065 -0.246409 -0.2186774 -0.13760746 -0.4223777 -0.2935742 -0.20435064 -0.33108562
-0.34743285 -0.16835631 -0.420661 -0.1337357 -0.3168682 -0.3843377 -0.25693938 -0.18187945
-0.17584941 -0.33209 -0.4833209 -0.5234082 -0.28392178 -0.26441693 -0.33485004 -0.27292365

bn1.running_mean f4 [128]
00000000: 63a3 87c0 6c4f 853f 9f47 db40 ef0a f53f
00000010: d994 db40 27bb f540 6a5d 8740 dff3 41c1
00000020: 198f 753f c30a 853e de18 dbc0 9e3c bec0
00000030: 4ad2 2a40 152a 6f40 2b8c db40 8d7f 3b41
00000040: c9fe 0d41 0691 e540 adc4 d340 331f cd3f
00000050: 751f 16c1 984e ce40 3a76 c340 84fe 76be
00000060: f70a e83f 38ab f840 76f2 5ac0 cbf8 b0c0
00000070: 0053 91bd 0b4d 24c0 f4fd fdc0 5d0c b940
00000080: 365f b440 731f f840 1b33 1541 aece 0d3f
00000090: 978e 6440 cc57 b43f abc5 12c1 e35a bc40
000000a0: 92c8 5ac0 2b1f 2c40 ce42 ec3f e4a4 8e40
000000b0: fd06 7d40 5c9e b7bf 5517 3b3f 2dd4 5fc0
000000c0: f95d 1dc0 84d2 d8bf 0815 b0be e605 be3f
000000d0: 473b ed40 cf9d cf3e 5214 4d3f 26e3 dec0
000000e0: 1268 5540 d863 c340 e4da adc0 4308 2e41
000000f0: ea45 d23f af01 29c1 f3f5 8940 1030 1e40
00000100: 5fca 8c40 5fdf cdc0 3c04 b140 40eb d13e
00000110: c14f a2bf 0584 f6c0 358b 0540 28dc 4ec1
00000120: e0b2 1fc0 f077 a140 1c76 eb40 85fd 1b3f
00000130: bda9 0441 2a1f 1e41 8518 ff40 16f9 fa40
00000140: 2ff4 0a41 4eb6 43c1 3c92 67c0 0a92 e63f
00000150: c3dd 0941 3cab a440 acf0 bd40 0d80 4c40
00000160: 651f 3740 ad0c 34c0 e795 8240 8105 5cb9
00000170: 0e67 9340 7982 f040 fc27 c23f ba2a bc40
00000180: 5957 3540 2765 e540 5a90 96c0 2f17 bb40
00000190: d800 e340 c3ce 233d cec8 5740 d673 97bf
000001a0: ddd0 6640 49ae b4c0 1c7f 92c0 5bff 48c0
000001b0: e37a a440 4ac8 20c1 0653 ae3f 4daa 373f
000001c0: ac36 f6c0 016e 53be 85c6 7640 592b 2241
000001d0: 80d9 0dc0 bbd5 9540 d602 a93f 212c d340
000001e0: 8907 97c0 4b2f 8c3f ba94 dfc0 d720 9b40
000001f0: 34c3 943e 8e58 1f41 c137 fe3f d0c4 7240
-4.2386947 1.0414863 6.852493 1.9143962 6.86192 7.6790957 4.230153 -12.122039
0.95921475 0.25984773 -6.8467855 -5.9448996 2.669085 3.7369435 6.8608603 11.71864
8.874703 7.173953 6.6177583 1.6025146 -9.38268 6.447094 6.108182 -0.24120528
1.8128346 7.7709007 -3.4210486 -5.53037 -0.07095909 -2.5672023 -7.93725 5.782759
5.6366224 7.753839 9.324977 0.55393493 3.571203 1.4089293 -9.173259 5.8860946
-3.4184918 2.6894023 1.8457887 4.4576283 3.9535515 -1.4345202 0.73082477 -3.4973252
-2.4588606 -1.6939244 -0.34391046 1.484555 7.413486 0.40550086 0.8010913 -6.965228
3.334477 6.105938 -5.43297 10.877017 1.6427586 -10.562911 4.311273 2.4716835
4.3997035 -6.433517 5.531767 0.40999794 -1.2680589 -7.7036157 2.0866215 -12.928749
-2.4952927 5.045891 7.3581676 0.60933715 8.29144 9.882608 7.971743 7.842906
8.684615 -12.232008 -3.6183004 1.8013318 8.616641 5.1459026 5.935629 3.1953156
2.8612912 -2.8132737 4.0807986 -0.00020982885 4.60633 7.515927 1.5168452 5.8802156
2.8334563 7.1685977 -4.705121 5.84658 7.093853 0.039992105 3.3716311 -1.1832225
3.606498 -5.646275 -4.5780163 -3.1405857 5.140001 -10.048899 1.3619087 0.71744233
-7.694174 -0.20647432 3.8558667 10.135583 -2.2164001 4.68234 1.320399 6.599137
-4.71967 1.0951933 -6.986905 4.847759 0.29055178 9.95912 1.9860765 3.7932625

bn1.running_var f4 [128]
00000000: f10a 0942 3e1e 9841 cde7 9842 c865 e541
00000010: 28a0 db41 180a d841 7eec 1c42 a22a 9142
00000020: 7863 e041 25e8 f041 9c4c 1b42 0045 1a42
00000030: 10ab de41 4e01 c641 0ded 8542 9d19 bf41
00000040: bb14 a641 b915 a941 b200 6c42 209f ca41
00000050: ccda 2142 1d49 a141 4fa0 ca41 092c 5a42
00000060: 5936 c341 e89f b341 4ca8 4a42 d2f8 e041
00000070: e1dc 7f42 bc92 be41 e5e7 f741 fa92 ab41
00000080: bdff a541 70ca cf41 6882 b041 d235 ca41
00000090: 7171 e541 3983 1242 cad7 0c42 80ed 9c41
000000a0: 896b 2542 a85f d441 aaf2 e341 48be e441
000000b0: 1987 de41 7b7d c741 defc bf41 013e b641
000000c0: 1f3b 0042 cc23 0742 fcc5 2242 617f 9c41
000000d0: a259 6c42 9355 d041 8871 3842 976f 3242
000000e0: 2315 b641 e1aa ad41 dfdb e741 65de 0e42
000000f0: 62f0 cb41 1f15 5d42 18c3 b541 447e 3642
00000100: d5f5 b341 42bd 2442 028d de41 7a39 ca41
00000110: 23f2 a341 5329 b041 3598 b541 f692 4542
00000120: 38e2 1042 a3ec 5542 7587 9541 c743 1742
00000130: 6c3e 9441 50e1 3942 b45b ec41 81d3 b341
00000140: 6b6e 8342 e08c ad41 6b7d 0b42 abf2 cb41
00000150: 166d 8a41 b89d f141 5ed6 c541 5a7f e241
00000160: 6d98 c641 c9a1 ac41 485c 1e42 3e5f 2142
00000170: 1417 d241 1926 6542 3bd1 b641 a6ab b741
00000180: bbab d841 2c66 0a42 fb23 4d42 f00e bf41
00000190: a5c4 2d42 cf21 c241 7b4a 0142 87a9 5d42
000001a0: 20ea cf41 336c e441 2378 df41 0517 0a42
000001b0: 0640 d241 5a1f 1242 5e65 e441 20b7 9f41
000001c0: fbd7 fb41 22f1 a241 a319 cd41 b28b 6942
000001d0: df1a 0042 8315 ab41 e5c8 9241 6fcf 8441
000001e0: 87f3 bf41 eee9 b341 4c8d 0a42 d7ce 2c42
000001f0: a42c a241 450f 4842 8712 ec41 1d44 be41
34.260685 19.014767 76.452736 28.674698 27.453201 27.004929 39.23095 72.58327
28.048569 30.113352 38.824814 38.567383 27.833527 24.750637 66.96299 23.887506
20.760122 21.135607 59.00068 25.327698 40.46367 20.1607 25.328276 54.543003
24.401537 22.45308 50.664352 28.121494 63.965702 23.821648 30.98823 21.446766
20.749872 25.973846 22.063675 25.27628 28.680391 36.628147 35.21073 19.615967
41.355015 26.546707 28.493488 28.59291 27.815966 24.93627 23.99847 22.780275
32.057735 33.784958 40.693344 19.562197 59.087532 26.041784 46.11087 44.608974
22.76032 21.708437 28.982359 35.717182 25.492374 55.270626 22.72026 45.623306
22.495035 41.184822 27.818851 25.278065 20.49323 22.020178 22.69932 49.393517
36.220917 53.48109 18.691141 37.81619 18.53048 46.47003 29.544777 22.478273
65.71566 21.693787 34.87248 25.49349 17.303265 30.202011 24.729671 28.312183
24.824427 21.578997 39.59012 40.34301 26.261269 57.287205 22.852163 22.958813
27.083853 34.599777 51.285137 23.882294 43.442036 24.266508 32.322735 55.415554
25.989319 28.552832 27.93366 34.52248 26.281261 36.530617 28.549496 19.964417
31.48046 20.36774 25.637518 58.38642 32.02624 21.385504 18.348093 16.601286
23.99391 22.489223 34.637985 43.201992 20.271797 50.01491 29.509047 23.783258

fc2.weight f4 [128, 128]
00000000: ae2f 2abe a9a2 e63d bfdf 593d d191 b6bd
00000010: 848d fdbc 25ca 5dbd bfd8 223e 3318 c2bb
00000020: d119 9ebe 3375 8e3e 08d5 6fbe a025 c9be
00000030: d996 4d3e 7cca 3e3e ce71 d9bd a0bd 7b3b
00000040: 612c e53d b31b d63d 2029 9e3d 27eb d63d
00000050: 6960 093e 180d 2abe 8a64 903e d40f 053e
00000060: 1b23 113e 922c 21be d009 fcbd c979 3f3c
00000070: 4fc0 8ebe 3c5c 02be 3fbd d1bd 94cf 99be
00000080: 1400 003e 91a4 0c3e a97a c3be 46a1 8cbd
00000090: 6796 da3c 4826 a6be 55ce d5be ec78 18bf
000000a0: 6b1e 84be c617 013d 1148 c43d 6a03 7abc
000000b0: ad12 0d3d 8247 4cbe 037d 7b3e d6c9 bdbd
000000c0: 9fb5 92be 6281 b0be 12e0 11bf 0112 8a3e
000000d0: b67b be3b f02e abbd 9981 aabb dbd3 3abd
000000e0: 4d20 913d 517a 52be 51ad 68be 258e d03d
000000f0: 928c 0ebc ed53 4b3d 8962 1abe 9817 e93d
00000100: b295 81be aba0 6c3e eee8 fabc d422 303d
00000110: 9aa8 97be 2205 2f3e 9ce3 b23d 172e a0bd
00000120: d829 33be 6998 aabd f476 86be f022 cfbd
00000130: 591d 09bf 8028 15bd a3d4 823e 553e 0ebe
00000140: 669f c1bb 95a9 273e 1db7 aabd 4c8d 5a3e
00000150: 48ca 783d 0297 b53d 9b27 58be 21db c9be
00000160: 08e1 aabd fc57 8fbe 5752 0a3e 244d 2abe
00000170: 994f 073e 1203 ad3d d148 643d a5c2 debd
00000180: 8a56 3cbe e19d 38be 8f94 08bb 49d5 8fbe
00000190: 716d 1dbe d89c 42be 3db3 8cbd 0957 9fbd
000001a0: 3cad e7bd 7c5f 9c3e 5722 d1bd a4e7 bbbe
000001b0: 2392 acbe acd4 1fbd 3437 23be 6f6b 20be
000001c0: f332 ab3d 84f7 fabd d77b b4be 19e5 a83d
000001d0: eaa9 963d 8f10 ae3d 4bad f63e e3fc 413c
000001e0: 75e3 e93c 5ef0 573e c02e 763e 53b3 02be
000001f0: a2e7 97bc 546c 36bd 4e9c cebd 15df f13d
00000200: 6190 27bc 2ee2 43be 1086 96bb e926 73bc
00000210: b7d8 b5bd 068e 82be 2a03 e33b f2e6 20be
00000220: 1095 01bf 0fb0 97be a90e fb3d 8151 473e
00000230: 4492 01be ebfc 6dbe 61ea 6f3d 939f e8bc
00000240: cec5 9a3e 5de4 95be df53 92be 1b3e a93d
00000250: dea9 2b3d c57b dfbd f492 0bbf 3a50 063d
00000260: 1107 a8bd 0ec4 573c d636 d13d b26e 2d3d
00000270: 220a a93d 9d5c 243e ac7e 14be f75b a0be
00000280: 0697 b6bc dee9 93be 5bca 57be cda0 863d
00000290: 0859 a73e 1ac5 da3d 158f 9ebe dd59 df3d
000002a0: 88a3 96bd f504 883d 7a09 243e 3888 123e
000002b0: c6f9 8c3e e712 2abd 67a7 ed3d cdfb 503c
000002c0: 704f ecbd 5907 b6bd aab6 df3d 870f 6cbd
000002d0: a97e 3dbc 193f 443e 8ff5 813d 915e 4cbc
000002e0: fdcc e9bc 17e9 e8bd ce2b 0abe fe58 383e
000002f0: 9d34 c9be b8bc b3bd 7b94 bf3d b484 9abe
00000300: 1c48 983d 4bc2 933e 6b0e 213d bf92 edbe
00000310: 76ea 013d 1f99 9e3d d4e6 e8be b962 2c3e
00000320: 01c0 293e ce9c d3bd 9cd8 fcbd 5076 2e3d
00000330: de60 fabc 9e02 863e 01dc d2bd 3b0c 34be
00000340: e285 9ebd 4818 423c b3a6 6d3e 294e 17bf
00000350: d2a7 8ebe 7143 28be 0c53 3e3d 94e3 803d
00000360: f9ae 9cbb a0f9 ba3c feec adbe 5789 613c
00000370: 4571 7a3d 41c1 ed3d 6188 3cbe 4c49 16be
00000380: c278 8abe 70b5 5abe 22b7 a4bd 1db6 703e
00000390: a0e5 5f3e 40da 33bd 6ec3 bf3e 656b 2bbd
000003a0: 064a f13e 3640 94bd cbd6 043c a838 203e
000003b0: fafa a4bd 230e b3be b4b5 603c 588d c83e
000003c0: f71e 283e 9e71 54be e875 d8be 1f9b 26be
000003d0: a655 25be 9b1c 08be bd79 04be 661a 063e
000003e0: 604b 5abe a1a5 25be 464c a1be a7af a0bd
000003f0: 72aa 45bd 81b4 67be 6e27 12bf c0ac 08bd
-0.16619751 0.11261494 0.053191897 -0.08914531 -0.030951269 -0.05414786 0.15902995 -0.005923295
-0.3087907 0.2782379 -0.23421109 -0.39286518 0.20077075 0.18631929 -0.1061741 0.0038412586
0.11190105 0.10454502 0.07722688 0.104940705 0.13415684 -0.16606557 0.28201705 0.12994319
0.14173548 -0.15739658 -0.12306559 0.011686751 -0.27881095 -0.12730497 -0.10241174 -0.30041182
0.1250003 0.13734652 -0.3817952 -0.06866698 0.026683046 -0.3245108 -0.4175898 -0.5955951
-0.25804457 0.031516813 0.09584058 -0.015259603 0.03444164 -0.19949153 0.24559407 -0.09267013
-0.2865419 -0.3447371 -0.5698253 0.2696686 0.0058130873 -0.08358562 -0.0052034375 -0.045612197
0.07086239 -0.20554473 -0.22722365 0.10183362 -0.008700507 0.049640585 -0.1507665 0.11381453
-0.2530952 0.23108165 -0.030628648 0.043001965 -0.2962082 0.17091802 0.08734819 -0.07821291
-0.17496431 -0.08329851 -0.2626263 -0.10114086 -0.53560406 -0.036415577 0.25552854 -0.13890965
-0.0059088944 0.16373284 -0.08335707 0.21342963 0.060739785 0.08866693 -0.21108858 -0.39424995
-0.083437026 -0.27996814 0.13507973 -0.1663099 0.13213958 0.08447851 0.055733506 -0.10876969
-0.18392387 -0.18028976 -0.00208405 -0.2809241 -0.1537378 -0.19005144 -0.068701245 -0.077802725
-0.11312339 0.305416 -0.10211628 -0.36700165 -0.33705243 -0.03902118 -0.15939027 -0.15665983
0.08359327 -0.12254241 -0.35250732 0.08246822 0.07356627 0.08499252 0.48179087 0.011840078
0.028550843 0.21087787 0.24041271 -0.1276372 -0.018543068 -0.044536904 -0.100884065 0.11810128
-0.010227294 -0.1912925 -0.004593618 -0.01484082 -0.08879226 -0.2549898 0.0069278674 -0.15713099
-0.50618076 -0.2962651 0.122586556 0.19464685 -0.12653452 -0.23241012 0.05857313 -0.028396403
0.30229038 -0.2927579 -0.28579614 0.08263799 0.041910045 -0.10912279 -0.5452111 0.032791354
-0.08204473 0.013169302 0.10215537 0.042341895 0.08253886 0.16050954 -0.14501446 -0.31320164
-0.02228881 -0.28889364 -0.21073286 0.06573639 0.32685113 0.106821254 -0.30968538 0.10905812
-0.0735541 0.066415705 0.1601924 0.14309776 0.27534312 -0.041521933 0.11604195 0.0127553465
-0.11538589 -0.0888812 0.10923512 -0.057631996 -0.011565843 0.19164695 0.06345665 -0.012473718
-0.028540129 -0.11372583 -0.13493273 0.18002698 -0.39297953 -0.087762296 0.09354492 -0.3017937
0.07435629 0.2885917 0.03932039 -0.4640102 0.03171774 0.07744049 -0.45488608 0.16834535
0.1657715 -0.103326425 -0.123460025 0.0425933 -0.030563768 0.26173872 -0.10295869 -0.1758279
-0.0774038 0.011846609 0.23208122 -0.5910364 -0.27862412 -0.16431977 0.04646592 0.06293407
-0.0047816006 0.022824109 -0.33969873 0.0137656545 0.06114318 0.11609126 -0.184114 -0.14676398
-0.27045256 -0.21358275 -0.08042742 0.2350697 0.21864939 -0.04390931 0.3745379 -0.041850466
0.47126788 -0.0723881 0.008107851 0.15646613 -0.080556825 -0.34971723 0.013715196 0.39170337
0.16418062 -0.20746467 -0.42277455 -0.16270112 -0.16145954 -0.13292162 -0.12937064 0.13096008
-0.21317816 -0.16176464 -0.31503505 -0.07846003 -0.048258252 -0.2262745 -0.57091415 -0.033367872

fc2.bias f4 [128]
00000000: c205 11bd 76ec a2bd 100a fa3c 7a4b bd3d
00000010: 1e03 b0bc c2ae 9dbd 0488 90bd 4ea4 73bb
00000020: bb9c 86bd 3229 4dbd 31a8 4b3d f6e5 8dbd
00000030: c967 6e3d b7b7 c2bc 2a1f 94bd d62f 733b
00000040: f74b efbc 1b36 563d 33c3 dc3c 95aa 083d
00000050: c4a8 293d e135 a73d e6a1 9938 254e ae3a
00000060: e732 253d 8b69 2d3c bf62 8b3d 843b 693d
00000070: 0dfb 2a3c 9b31 8b3d f6b6 af3c c727 bcbc
00000080: 5b5c 34bd 0e0c a6bd f51b 75bd c50a 3ebd
00000090: 256a 9f3d 3b97 a33d afc5 67bc 5ddb 9c3c
000000a0: 0cd7 873d 2400 af3c e3cf 06bd 7606 813d
000000b0: 77c8 0c3d 9637 383d 09b3 7cbd 3f89 243d
000000c0: 5010 873d 9d7b ccbc 7505 a23d c0e4 26bc
000000d0: 3b4d aebd 7da7 673d b88f 4fbd beec 5b3d
000000e0: 8435 793d d009 0e3c 568b ae3d a203 97bc
000000f0: 2f3f 8d3d 0413 9ebd 50c5 b9bd 6219 97bd
00000100: 3362 70bc 54ce 013d 6286 a6ba 1765 b73c
00000110: 356f 9cbd 87bb 763d 18a7 76bd 14cf 93bd
00000120: 2790 a63d 6b62 63bd 46d6 c23c 2ae6 edbb
00000130: ff5d 023d 0646 b4bc f4a2 853d cb57 883d
00000140: 7624 9f3d 1cc4 89bc 2d60 c3bb 4ff2 fc3c
00000150: 7d88 b4bd 8f42 0e3d 907f 813c 793f 633d
00000160: 1e31 673d 4653 6ebd 005b 8b3b fec1 843d
00000170: 0cbe d93c a8af ab3a 1744 9c3d c2c3 67bc
00000180: 8966 84bc 2a17 a93d a433 a5bd 1d37 a83c
00000190: ddc8 a83d 94f3 a0bd 9ef8 113d 71d4 2abc
000001a0: 0d66 3fbd 5bc7 833d 0ad5 283d 4858 b23d
000001b0: bae2 9a3d e34e c83b 3b9f 123b 9a33 30bd
000001c0: 92b7 97bd cc95 88bc 4c92 a9bd ca56 26bd
000001d0: b55a 5abb 77b3 93bd 0362 bb3d 0f0a 8c3d
000001e0: f23a 443b d668 34bd 369f 96bd 0ee3 933d
000001f0: 8197 6dbc c9f6 35bc e541 ea3c 206d fdbc
-0.03540588 -0.079552576 0.030522376 0.09242912 -0.021485861 -0.07699348 -0.07057193 -0.003717679
-0.06572863 -0.050088115 0.049720947 -0.06928627 0.058204446 -0.023769243 -0.072325066 0.003710737
-0.029211028 0.052297693 0.026948547 0.033365805 0.041420713 0.081645735 7.3257645e-05 0.0013298435
0.040331747 0.010584245 0.06805944 0.056941524 0.010435832 0.06796571 0.021449547 -0.022968186
-0.04403339 -0.08107768 -0.059841115 -0.04639699 0.07783917 0.07987829 -0.014146253 0.01914757
0.06632814 0.021362372 -0.0329131 0.063000605 0.034370866 0.044974886 -0.06169418 0.04016995
0.06594908 -0.024961287 0.07911197 -0.010186374 -0.08510824 0.056556214 -0.05067417 0.05369257
0.060842052 0.008669332 0.0852267 -0.01843435 0.06896817 -0.07718471 -0.090708375 -0.07377888
-0.01467185 0.03169091 -0.0012704844 0.02238707 -0.076383986 0.060237434 -0.060217947 -0.072172314
0.08132964 -0.05551378 0.023783814 -0.0072601037 0.031827923 -0.022006046 0.065252215 0.0665737
0.07770626 -0.016817145 -0.005962393 0.03087726 -0.088150956 0.034731444 0.015807897 0.055480454
0.056443326 -0.058184884 0.0042527914 0.064823136 0.02657988 0.0013098614 0.076301746 -0.014145793
-0.016162174 0.08256371 -0.0806649 0.020534093 0.08241437 -0.07858959 0.03563749 -0.010426627
-0.046728183 0.064345084 0.041218795 0.087082446 0.07562776 0.0061129197 0.002237274 -0.04301796
-0.0740806 -0.016672991 -0.08279857 -0.040610112 -0.0033318226 -0.072119646 0.091495536 0.06837856
0.002994236 -0.04404529 -0.07354586 0.072210416 -0.014501453 -0.011106201 0.028595874 -0.030935824

bn2.weight f4 [128]
00000000: d361 223f 6560 e03e 3467 183f 5b66 403f
00000010: 69e9 f93e d63b 3c3f 40d0 333f ccae 583f
00000020: 2a24 0d3f e780 3f3f 9bd0 013f 28f1 313f
00000030: b75e 0e3f 4c82 423f 4ddd 393f 0640 003f
00000040: f80e fe3e ffce 123f 3d9a f93e b5b2 173f
00000050: b137 3f3f 15e7 073f 8389 0e3f 0820 e83e
00000060: aefb 1b3f 2b5a cf3e 7493 003f a287 2d3f
00000070: c55d 023f 5907 bc3e 53f2 1d3f af92 0a3f
00000080: 8610 1d3f a871 f73e a795 463f be94 163f
00000090: 9318 303f 2bae 1c3f 99b1 043f b019 143f
000000a0: 4a85 003f 5dcd 063f 6804 fd3e bbc1 243f
000000b0: 550e 073f 6921 ee3e dd22 3e3f d180 143f
000000c0: 190c 0c3f 623b 1e3f f1ed 1c3f 4588 e33e
000000d0: 67e9 0e3f 5b74 0b3f 8634 1b3f 6fd6 083f
000000e0: a474 0f3f 597e 183f da47 0a3f 8030 303f
000000f0: 3d68 1e3f 0ecd 113f 3cb8 0e3f 0f4b ec3e
00000100: 7438 ed3e 5a9a 393f 2242 f63e 188e d13e
00000110: a574 be3e 4bfb 1d3f 3d11 0d3f 496a f83e
00000120: d347 053f e3ca 193f 2912 133f bcb8 0d3f
00000130: 2907 123f 752f 183f 387a 183f 431d 0c3f
00000140: 7011 043f 47b9 203f ed68 023f a3a6 213f
00000150: bbf0 183f 5dfa 223f 3ef2 143f 4738 8d3e
00000160: 1843 053f bc43 033f ee23 063f da8b 263f
00000170: baa6 e43e 3bb4 1b3f 814b 173f 4585 df3e
00000180: f4f0 3c3f 86bc fc3e fe58 0d3f 7c50 113f
00000190: a43d f83e 1796 023f 90f6 f93e 47e9 043f
000001a0: 9e21 0d3f 5bc4 233f 59d4 073f 6957 233f
000001b0: e507 1c3f 7832 dd3e e349 1a3f e01a 023f
000001c0: da1b 113f 1c82 103f 12a1 273f 3a96 0d3f
000001d0: 7530 343f 973a 0a3f 0c1e 2e3f e90a 193f
000001e0: 6964 013f f2cd 363f e440 fa3e c6ff 043f
000001f0: 852d 083f 3a50 173f c79c 4a3f e1e4 173f
0.6343052 0.43823543 0.59532475 0.7515618 0.4881089 0.735288 0.7023964 0.8464172
0.55133307 0.74806064 0.5070893 0.695086 0.55613273 0.7598007 0.72603303 0.5009769
0.49620795 0.573471 0.48750487 0.5925706 0.74694353 0.5308698 0.55678576 0.45336938
0.6093091 0.4049848 0.50224996 0.67785084 0.5092433 0.36724356 0.6169788 0.5413007
0.6135334 0.483289 0.775721 0.5882071 0.687875 0.6120326 0.5183349 0.57851696
0.5020338 0.5265711 0.49417424 0.6435811 0.52756244 0.46509865 0.7427195 0.5800906
0.5470596 0.6180936 0.6130057 0.44439903 0.55824894 0.5447442 0.6062702 0.534522
0.56037354 0.5956779 0.54015887 0.68824005 0.61877805 0.56953514 0.5574987 0.46151015
0.46332133 0.72501147 0.4809733 0.4092872 0.37198368 0.6171157 0.5510443 0.4851859
0.5206272 0.60075206 0.57449585 0.5536001 0.57042176 0.59447414 0.5956149 0.5473215
0.5158911 0.6278271 0.50941354 0.6314489 0.59742326 0.63663274 0.5818213 0.27582
0.520555 0.5127523 0.52398574 0.65057147 0.44658452 0.60821885 0.59099585 0.43656364
0.73805165 0.49362582 0.55213916 0.56763434 0.48484528 0.5101027 0.48820925 0.5191845
0.5512942 0.6397149 0.5305839 0.6380525 0.60949546 0.43202567 0.6026899 0.5082226
0.56683123 0.5644853 0.6548015 0.5530735 0.7038644 0.5399565 0.680146 0.5978227
0.5054384 0.71408 0.48877633 0.5195278 0.5319446 0.5910679 0.79145473 0.59333616

bn2.bias f4 [128]
00000000: 9af1 c5be cf25 11bf dd3c fdbe ac8f 7ebd
00000010: adbb 03bf 24d8 93be 24a6 e7bd 8943 003e
00000020: a8ed 03bf dad7 49be e5b0 02bf 4c61 9bbe
00000030: 0a9d e9be 83fc 7abe 7cf1 5ebe d590 06bf
00000040: adf5 01bf cbfd 00bf 44d7 0ebf 270f a1be
00000050: 4879 46be f736 07bf 4371 0fbf d3cb 04bf
00000060: 6451 e4be cd9d 25bf 4798 1fbf 366d d7be
00000070: dba3 12bf 4476 31bf a2e5 08bf 5bd2 ffbe
00000080: ad21 b8be 4623 09bf 9a5d e3bd bf63 ffbe
00000090: 256f 89be e27f dcbe 6ead f7be 3f3d 06bf
000000a0: bea9 16bf 7e05 17bf 31cd fabe 5391 d1be
000000b0: f2d4 03bf 776f 0fbf d678 18be 6fbe 0fbf
000000c0: 0c60 c5be 3824 f9be 34c0 ebbe 2d61 16bf
000000d0: 12e5 fbbe e20e 0fbf bd0e e6be 2e98 08bf
000000e0: c986 fbbe a732 f8be 6903 dfbe 0162 17be
000000f0: 087c 07bf 29c4 febe bf8e 04bf 97c5 1cbf
00000100: 39fd 07bf b8c6 3fbe 012f 16bf 93da 16bf
00000110: 09c5 2ebf a7ff c8be 88a1 09bf da06 0dbf
00000120: 73b2 0abf 42f0 f0be 8bc5 02bf e734 e9be
00000130: 1506 c5be 7ec9 f2be d13b efbe 405f f3be
00000140: ae70 0fbf e9fe b2be 8be7 17bf 5ce9 bcbe
00000150: fb6f 04bf 9055 eebe 92bd ecbe 186d 1fbf
00000160: 01d7 0bbf 3ad4 0cbf a451 11bf 0f51 debe
00000170: 502a 01bf 446c f7be 02ac f4be feef 14bf
00000180: 496b d8be 7a08 12bf 40b4 ebbe 6e68 f1be
00000190: ec50 1abf c6cf dabe 1a2d 07bf 3319 08bf
000001a0: 1c26 11bf e7bb 89be e3ef 15bf eda9 b2be
000001b0: 1a3e 01bf 9ba7 12bf d9ca 09bf e8d1 15bf
000001c0: 2100 fdbe c4b7 0abf 070a 97be 4232 0fbf
000001d0: c433 a9be d75e f9be e387 83be 14a3 fabe
000001e0: 90dc 15bf 53e8 c0be 8592 10bf 9588 fabe
000001f0: ae58 1dbf dfaf 04bf 7cf8 92be f90c eabe
-0.3866089 -0.56698316 -0.49460497 -0.062148735 -0.51458246 -0.2887584 -0.11310986 0.12525763
-0.5153451 -0.19711247 -0.5105117 -0.3034767 -0.45627624 -0.24510388 -0.21771806 -0.52564746
-0.50765496 -0.5038726 -0.5579722 -0.31456873 -0.19382203 -0.52818245 -0.560322 -0.5187351
-0.44593346 -0.6469391 -0.6234173 -0.4207551 -0.57281274 -0.69321084 -0.5347539 -0.49965176
-0.35963193 -0.5356945 -0.111018375 -0.49880788 -0.2684261 -0.43066317 -0.48374504 -0.52437204
-0.58852756 -0.58992755 -0.48984674 -0.40931186 -0.51496804 -0.56029457 -0.14889845 -0.56149954
-0.3854984 -0.48660445 -0.46045077 -0.5874203 -0.49198204 -0.55882084 -0.4493312 -0.5335721
-0.4912627 -0.48476145 -0.4355729 -0.1478348 -0.5292363 -0.49759033 -0.51780313 -0.61239
-0.5312076 -0.18728149 -0.5866547 -0.5892727 -0.682694 -0.39257547 -0.537621 -0.5508858
-0.5417854 -0.47058302 -0.51082677 -0.45548174 -0.38481203 -0.4741935 -0.46725324 -0.47533607
-0.5603131 -0.34960106 -0.5933768 -0.3689679 -0.5173337 -0.46549654 -0.4623838 -0.6227584
-0.54624945 -0.5501133 -0.567652 -0.43421218 -0.5045519 -0.48324788 -0.47787482 -0.581787
-0.42269352 -0.57044184 -0.46035957 -0.47149986 -0.60279727 -0.42736644 -0.52803195 -0.5316345
-0.56698775 -0.2690117 -0.58569163 -0.34895268 -0.50485384 -0.57286996 -0.53825146 -0.58523417
-0.4941416 -0.54186654 -0.29499838 -0.5593606 -0.33047307 -0.4870517 -0.2568961 -0.48952544
-0.58539677 -0.3767725 -0.5647357 -0.4893233 -0.6146344 -0.5183086 -0.28705204 -0.45713022

bn2.running_mean f4 [128]
00000000: b27f bbbf bf87 c3bf cf9f 27c0 c7c2 2bbe
00000010: 181b 0cc0 5f8c b9bf 2507 11be 40b0 913e
00000020: 923b febf e015 76bf ace4 f8bf cdf9 18bf
00000030: e91b d6bf 707d cbbe 0581 1bc0 4c4c d6bf
00000040: 0c54 d1bf 2cdb b2bf 85cb 83bf 6928 99bf
00000050: 2238 00c0 62ee cdbf 5441 35c0 02cd dbbf
00000060: dbf8 0cc0 c3e7 1c3e c664 58be 7aad babf
00000070: 6b46 54bf 04db 0fbf ec4f a2bf 15eb 00c0
00000080: 7aee f4bf f7f2 06c0 ac7c f2bf 925d f2bf
00000090: 6b8b 6bbf 10ca dbbf 991b 93bf 3a7c 29c0
000000a0: 1963 0ac0 4043 0bbf 1819 3ec0 72af dabf
000000b0: bc32 17c0 b14d e1bf 7f8f c2bf 727e 2bc0
000000c0: 2c0e 0dc0 1040 0fc0 e45e aabf d32f 47c0
000000d0: f3f8 c4bf 6393 0ac0 e8d8 20c0 7f8c e0bf
000000e0: 7bcb fdbf e630 17c0 2ce0 a4bf cfff 92bf
000000f0: 866b ebbf e84a ebbf 9eab ddbf d076 f9bf
00000100: 24f8 aabf bc36 b1bd 7490 17be e954 32c0
00000110: 7384 88bf 515e c53e bb35 8dbf 36ca 09c0
00000120: 72e5 a9bf 72ef 88bf 6232 aabf 21ab c7bf
00000130: 9072 95bf 49a7 a2bf 8b9c a0bf 445d 05c0
00000140: 398c 17c0 5e2d 3ebf f00b 943f af9e d3bf
00000150: 22d3 e8bf 83bc dabf df85 27c0 f969 02c0
00000160: 8c13 c9bf 0df8 3ac0 e93a 18c0 531e d1bf
00000170: c171 c2bf c284 58c0 cfcf 20c0 b29d 97bf
00000180: 6185 debe 4b14 debf 4dfb 07c0 abdc c8bf
00000190: 45ac 96bd 8057 26c0 3d6b 05c0 c246 e5bf
000001a0: 3bdc c0bf 828d 26bf 9b71 0fc0 dc4c 98bf
000001b0: 2aa7 bbbf 6570 30bf f7e6 e2bf 075f 17c0
000001c0: dc2b d6bf 1c93 02c0 b030 87be 2a59 2ac0
000001d0: 49cc 01c0 75e8 f2bf c8fc 75be 139a e4bf
000001e0: 73a2 f6be f339 b4bf 1256 08c0 1e94 b0bf
000001f0: ea30 783f 9353 1dc0 16df c9bf 9458 31c0
-1.4648345 -1.5275801 -2.619129 -0.1677352 -2.1891537 -1.4495963 -0.14162882 0.2845478
-1.986193 -0.9612713 -1.9444785 -0.59756166 -1.6727268 -0.3974414 -2.4297497 -1.6742034
-1.6353774 -1.3973136 -1.0296484 -1.1965457 -2.003426 -1.6088374 -2.8321123 -1.7171938
-2.202689 0.15322785 -0.21132192 -1.4584191 -0.8291995 -0.56193566 -1.268064 -2.0143483
-1.9135277 -2.1085794 -1.8944297 -1.8934805 -0.9200961 -1.717104 -1.1492797 -2.6482072
-2.1622984 -0.5439949 -2.9702816 -1.7084792 -2.3624716 -1.7601835 -1.5200042 -2.6795926
-2.20399 -2.238285 -1.3310208 -3.112294 -1.5388473 -2.1652458 -2.513239 -1.7542876
-1.9827722 -2.3623595 -1.2880912 -1.1484317 -1.8392189 -1.8382235 -1.7317998 -1.9489384
-1.3356977 -0.08653018 -0.14801198 -2.7864325 -1.066542 0.3854852 -1.1032022 -2.152967
-1.3273146 -1.0698073 -1.3296626 -1.5599099 -1.1675587 -1.2707301 -1.2547773 -2.0838175
-2.3679335 -0.74287975 1.1566143 -1.6532801 -1.8189433 -1.7088779 -2.6175458 -2.037718
-1.570909 -2.9213898 -2.3785956 -1.6337379 -1.5190965 -3.383103 -2.5126836 -1.1845
-0.43461135 -1.7349943 -2.1247132 -1.5692343 -0.073570766 -2.5990906 -2.0846703 -1.7912219
-1.5067209 -0.65059674 -2.241309 -1.1898456 -1.466039 -0.689215 -1.7726735 -2.365175
-1.6732135 -2.0402288 -0.26404333 -2.6616921 -2.0280936 -1.897719 -0.2402221 -1.785952
-0.48170814 -1.4080185 -2.1302533 -1.3795202 0.96949637 -2.458226 -1.5771205 -2.7710314

bn2.running_var f4 [128]
00000000: 2613 a03f eca3 c13f 6ce5 f440 ac51 7e40
00000010: 357d de40 c573 2340 016b f83f 84e7 5c40
00000020: cc59 a040 30b9 1141 153a 0740 8293 cb40
00000030: f195 9340 fdbd 3940 c8c8 0a40 5c06 8640
00000040: 13a8 7e40 95c2 b13f 3e29 d23f 789a ec3f
00000050: 32a5 fd3f 325d f240 ca0a 9a40 27d4 7e3f
00000060: 1f80 c140 0b1c c23f df94 6940 3bd5 8440
00000070: cef5 aa40 323c b03f 02da fd40 aeee b340
00000080: dc56 2140 2eb1 9e40 58b9 4240 a0b0 8640
00000090: b6da 1141 c790 0b40 7bb9 b740 b465 9f40
000000a0: 11bf 2040 ebca c940 f48e c840 310f e040
000000b0: f28c b140 5dd5 3b40 0dbc d53f c426 c540
000000c0: d3ca 1640 2c53 5640 98d2 8340 e263 1541
000000d0: e71b 1940 05fc 7940 04c8 1f41 df80 dd3f
000000e0: 2c2f 5340 76ce 0341 87e4 6a40 13e6 0040
000000f0: afa9 de40 ee55 8d40 202f c240 f951 9240
00000100: 07db 2840 48af 0040 4b97 7e40 df8d df40
00000110: e301 f93f be71 9b3f 01ca 9f40 16f4 4140
00000120: f7d9 9240 d2b0 c13f b64c 1141 1b3e 8b40
00000130: fa12 8d40 e9f2 a440 b998 b940 3bdc b040
00000140: 913e 2340 45e5 c53f 78d0 e53f d886 a140
00000150: 0288 ab40 67e6 3540 e75f 9040 6ed1 dd40
00000160: 4b79 7240 bfe3 db3f 10e3 9440 6679 3b40
00000170: 2d76 3940 0566 1741 d41e f940 ca9a 3b40
00000180: 754d 3240 9f2f 993f 9f02 aa3f 1de6 b540
00000190: 20f6 e73f 5962 be40 8c07 0d40 69ca cc40
000001a0: 53d8 f440 4f22 fa3f af56 9140 5962 f03f
000001b0: aeb4 ef40 4876 e63f b514 0641 347a 2740
000001c0: 9fd8 8a40 e34b c940 fb8a a93f 66eb 3e40
000001d0: 4e4d fc3f f4fc 0440 c9b8 0b40 b7fa f740
000001e0: 03bd 7d40 c600 8740 4128 7c40 be6e 2c40
000001f0: b409 e93f 568d a640 ff85 fb40 6bb1 ef40
1.2505844 1.512815 7.6530056 3.9737349 6.952784 2.553941 1.9407655 3.4516306
5.0109615 9.107712 2.11292 6.3617563 4.6120534 2.902221 2.1685047 4.1882763
3.9790084 1.3887507 1.6418836 1.848464 1.9816039 7.5738764 4.813817 0.9954247
6.04689 1.5164808 3.6497114 4.151029 5.3425055 1.376837 7.9328623 5.6228857
2.5209265 4.9591284 3.0425625 4.2090607 9.115896 2.1807115 5.7413917 4.981165
2.5116618 6.3060203 6.2674503 7.0018544 5.548455 2.9348977 1.6698014 6.160982
2.3561294 3.3488264 4.1194572 9.336885 2.392328 3.906007 9.986332 1.7304953
3.2997541 8.2379055 3.6701982 2.0140426 6.9582133 4.4167395 6.0682526 4.5725064
2.6383684 2.0106983 3.9779842 6.9860682 1.9453701 1.2144086 4.9934087 3.0305228
4.589107 1.5132086 9.081228 4.351331 4.4085665 5.154652 5.799893 5.5268836
2.5506938 1.5460593 1.7954245 5.0477104 5.3603525 2.8421876 4.511707 6.931815
3.7886531 1.7178878 4.6527176 2.9292846 2.8978379 9.462407 7.785013 2.9313226
2.7859776 1.1967658 1.328205 5.68434 1.8121986 5.9495053 2.2035856 6.3997083
7.651407 1.954172 4.5418315 1.8780013 7.4908056 1.8004847 8.380055 2.6168337
4.338943 6.2905135 1.3245538 2.9831176 1.9711092 2.077939 2.1831534 7.749355
3.9646614 4.2188444 3.939957 2.6942592 1.8206086 5.204753 7.860107 7.4904075

fc3.weight f4 [1, 128]
00000000: 398d f13d 9e7f 7c3e 1529 58be 87ae d73d
00000010: 325d 04be d1cb db3d 63b8 b93d 945a 0a3e
00000020: 0e4d abbe 5c7d 933d f77e 1c3e 9651 a13d
00000030: a471 1fbe 2adb cf3d 950b df3d 5ecc 57be
00000040: 8b28 1d3e 3c88 123e ec50 7f3e 0576 c23d
00000050: 7a82 073e c6d9 9cbe ba81 cfbe c815 d53d
00000060: 682a 38be 20a0 02be 4706 aabe 0cb5 2c3e
00000070: 5765 75be 1946 aabe ec91 c4be 619a a7bd
00000080: 9d46 e83d e349 a2bd db5b db3d f318 7b3e
00000090: 58d1 963d f634 023e 586a c63d d5a7 91be
000000a0: a325 0e3f ae1e 8dbe b70c aabd 7eb9 fe3d
000000b0: 35ec c2bd 4bbf 953e b6d9 f03d 01da bdbe
000000c0: 76fc d33d 7dc2 7b3e 2ff6 663e 69b1 8ebe
000000d0: 9efb 223e d12a b83e 2ac6 54be 1652 953e
000000e0: b415 283e d783 9bbe b832 0a3e 0f7a b43d
000000f0: 2787 cabe 6eba 443e 773a a4be 47fe 8ebe
00000100: ada0 4f3e 82a4 d23d ebb3 92be 0eaf 09be
00000110: 113f 31be 80e7 173e f9eb 6dbe 1978 dd3d
00000120: 7c07 9dbe eca4 323e ceaf b5be 88d3 103e
00000130: 99f0 d43d bd45 51be 73a2 5fbe 600e aabd
00000140: 1389 9d3e bf2c 983d c919 a4bd 179d d13d
00000150: c3e6 81be f8d6 393e 815e 103e 278e 9c3b
00000160: f505 56be 5fcb 9f3e ab73 ba3e 28af 1a3e
00000170: e924 663d ce12 67be 15d1 2ebe 89c3 12be
00000180: aaf2 2a3e 5f4a a03e 2396 b03d 9c03 28be
00000190: 76bc 973e b043 13be 8ad7 473e 25cc 81be
000001a0: 3088 f0be 5c4e cf3d 4660 afbe eac6 de3d
000001b0: 5419 a0be 066d 8ebe f80c a9be 6fe0 b83e
000001c0: 19bf 833e fd94 8cbe 2378 ba3d 0097 c73e
000001d0: 6de4 bd3d 6b1d 023e 15cc b53d e6dc 57be
000001e0: f7e2 0cbe 1b55 103e 5330 3ebe 0381 4e3e
000001f0: a920 26be 3abd a7be 81b6 0d3e fc6d 85be
0.11794514 0.24658057 -0.21109422 0.10531335 -0.12926176 0.10732234 0.09068372 0.13511115
-0.33457226 0.07201645 0.15282808 0.078768894 -0.15570694 0.10149224 0.10890881 -0.21074054
0.15347497 0.14309782 0.24933213 0.09495167 0.13233367 -0.30634898 -0.4052866 0.10404545
-0.17984927 -0.12756395 -0.33207914 0.16865939 -0.2396444 -0.33256605 -0.3839258 -0.08183742
0.113415934 -0.07924249 0.107108794 0.24521236 0.07364148 0.12715515 0.09688252 -0.28448358
0.5552618 -0.2756247 -0.083032064 0.124377236 -0.09517709 0.29247507 0.11760275 -0.37080386
0.103508875 0.2458591 0.22554849 -0.27869728 0.15916297 0.35970166 -0.20778719 0.2916419
0.16414529 -0.30374023 0.1349591 0.08812343 -0.39556238 0.19211742 -0.32075855 -0.27928373
0.20276137 0.102852836 -0.28652892 -0.13445684 -0.17309214 0.14834404 -0.23234548 0.108139224
-0.30669773 0.17445725 -0.3548569 0.14143193 0.10397453 -0.2043676 -0.21839313 -0.08303523
0.30768642 0.0743041 -0.08012731 0.10235041 -0.2537137 0.1814841 0.1409855 0.004777688
-0.2090071 0.31209847 0.36416373 0.1510588 0.056187544 -0.22565767 -0.17071946 -0.14332403
0.16694131 0.3130674 0.08622386 -0.16407627 0.29635972 -0.1438129 0.19515815 -0.25351062
-0.46978903 0.10122368 -0.34253138 0.108777836 -0.31269324 -0.27817553 -0.33017707 0.3610873
0.25731733 -0.2745742 0.091049455 0.3898239 0.092720844 0.12706535 0.08876816 -0.2108036
-0.13758455 0.14094965 -0.18573122 0.20166402 -0.16223396 -0.32761556 0.13839151 -0.26060474
