models/chess_model.pth (torch, 108469 bytes, 13 tensors)

fc1.weight f4 [128, 64]
000000 7d cf fa 3d 19 0e f3 be 40 47 0d bd e7 66 1f be
       0.122466065 -0.47471693 -0.034491777 -0.15566598
000010 51 15 2b be 95 d5 1b bc 80 25 16 3e 5f c8 2b bd
       -0.1670735 -0.009511371 0.14662743 -0.041939136
000020 15 ac 9f 3e f2 de 9a 3e d9 b6 fb bd 56 56 8a bd
       0.31185976 0.3024822 -0.12290735 -0.067547485
000030 13 c3 1d 3e d5 e8 d9 3d de 5f 20 bf e9 bd 02 bf
       0.15406446 0.10640112 -0.6264628 -0.5107103
000040 1c 4b 81 3e 4d 80 a4 3e 00 e5 1f 3d 5d 28 a1 bf
       0.25252616 0.32129136 0.03903675 -1.2590443
000050 b5 24 54 3d dd 9b e1 be 9e be 43 be ac 1f 1e c0
       0.05179282 -0.44064227 -0.19115683 -2.470683
000060 a5 18 ed 3d 53 85 ba 3e d0 88 3d 3e 23 b4 81 3e
       0.11576966 0.36429843 0.18509221 0.25332746
000070 3c 1d 75 be c1 ca fc be 20 9b 08 bf 4d 3f 9c bd
       -0.23936933 -0.4937344 -0.533617 -0.07629261
000080 12 2b 87 3e d0 c0 3a 3e 3f 3c 46 be d9 a8 f1 be
       0.26400048 0.18237615 -0.1935892 -0.47199133
000090 7b 66 99 be 19 b2 d5 be 97 85 12 3e a1 b9 e4 bc
       -0.29961 -0.4173744 0.14308773 -0.027920546
0000a0 6a 7c a3 3e 50 6e 16 be b8 d1 f2 bd 5d 6d 3b 3e
       0.31930858 -0.14690518 -0.11856407 0.18303438
0000b0 94 3f 08 3f e2 46 5a bd 5a 45 2d bf 38 51 77 be
       0.5322201 -0.053290255 -0.6768395 -0.24152076
0000c0 e6 dd 12 be 91 df 05 be 18 41 af 3e a7 e0 5c bd
       -0.1434246 -0.13073565 0.3422935 -0.053925183
0000d0 57 2a b4 3d 06 38 cf 3e a6 cb 11 3d 73 6a 18 be
       0.08797138 0.4047243 0.035594605 -0.14884357
0000e0 19 cf a7 3d 24 52 66 3e 9e e6 bd bd 4f 24 0d 3e
       0.081937976 0.22492272 -0.09272502 0.13783382
0000f0 be 63 b7 3e 95 08 5a 3e 47 1e 0d be e8 77 99 3e
       0.35818285 0.21292336 -0.13781081 0.29974294
000100 77 37 85 be bc c4 14 bd bb be 8d 3e cb b6 b8 3d
       -0.2601888 -0.036320433 0.27684578 0.0901924
000110 71 5f 89 be 37 56 6b 3f 4b e6 19 3f 2e 52 5e bd
       -0.2683063 0.9192843 0.60117024 -0.05427759
000120 f6 35 a0 3d fa 93 b1 bd 99 87 17 bf 7a f1 b0 3e
       0.07822792 -0.086708024 -0.5919128 0.34559232
000130 6f 6c 00 bc 86 60 b6 3e 25 73 71 3b 42 64 9f 3e
       -0.007838353 0.35620517 0.0036842313 0.31131178
000140 e5 4b e6 3d e8 72 3f 3b 5a 26 b0 be ff 6c 96 3e
       0.112449445 0.0029212777 -0.3440426 0.29380032
000150 1d ca c2 be 63 d9 93 3d 6e ac 10 bf d8 21 21 be
       -0.38044825 0.072191976 -0.56513107 -0.15735567
000160 ae ad 7b 3e c1 d5 37 3e f7 fa 0a 3e b6 16 dc 3e
       0.24577972 0.17952634 0.13572298 0.42986077
000170 04 90 7d bf c9 74 b5 be 99 17 3b 3f b6 9f 71 3c
       -0.99047875 -0.35440663 0.7308288 0.014747551
000180 f6 69 64 be 89 af 42 bf 8c 66 f8 bd 35 62 3d 3e
       -0.22306046 -0.76049095 -0.12128934 0.18494494
000190 e7 d4 6c 3b cf eb e2 3e 43 bd af bc 00 94 e6 3e
       0.0036137642 0.44320533 -0.021452552 0.4503479
0001a0 fb 55 86 3d ed a3 77 3c 36 92 11 be 61 11 ac 3e
       0.06559368 0.015114767 -0.14215931 0.3360701
0001b0 a0 d9 84 be d1 69 ec bc 30 47 54 3e bf bc 50 be
       -0.25947285 -0.028859051 0.20730281 -0.20384501
0001c0 21 b3 17 be b9 df f5 3d 46 5c 3b 3e 7a d8 46 3e
       -0.14814426 0.12005562 0.18296918 0.19418517
0001d0 f0 69 89 be 1f 7d 51 3f ea a0 28 be 29 83 a9 3e
       -0.26838636 0.81831545 -0.16467634 0.3310788
0001e0 2c 9d 1c 3d cd ea 2b 3e 79 83 91 3d e7 0f 11 be
       0.03823583 0.16788788 0.071051545 -0.14166223
0001f0 d7 9a ff 3e 9a 11 17 3d 1f 83 5a 3e 90 02 77 be
       0.4992282 0.03688202 0.21339081 -0.24122071
000200 f3 98 ea bd 9d 02 77 3e 6a b2 0f 3f c2 fe 39 bf
       -0.11454954 0.2412209 0.56131613 -0.72654355
000210 d0 89 8e 3e 9d a4 a1 be f2 11 2f bf 2d 26 1e 3f
       0.27839518 -0.31570902 -0.6838676 0.61777
000220 e7 9d 62 be 57 be 41 3e c5 44 00 be a9 cd 2e 3d
       -0.22130547 0.18920265 -0.12526233 0.0426766
000230 90 4a 97 bd 21 9d 9d 3e 15 6e e4 be de 5e 97 bf
       -0.073872685 0.30783942 -0.44615236 -1.1825826
000240 a1 e3 03 be ee a1 04 3f b9 dd 65 bb f7 9d fa 3d
       -0.12879802 0.51809585 -0.0035074784 0.12237161
000250 38 b6 ef 3e 00 6d 70 3e 34 01 40 3f c0 82 1e be
       0.4681871 0.2347908 0.75001836 -0.15479565
000260 ed 4a d7 3e f2 08 f2 3c 9e 28 b0 be fe da 5a 3e
       0.4204935 0.029545281 -0.34405988 0.21372601
000270 c5 c5 c9 3d 49 db c6 3e 64 13 00 3e af 2c 06 3e
       0.09852175 0.38839176 0.12507397 0.13102983
000280 b3 6e 1c 3e 6f da 93 bd c4 fa 5f 3d c7 34 19 bc
       0.15276603 -0.07219397 0.054682508 -0.009350962
000290 13 ad 4b 3d 61 66 bf 3d 1d 4e 2b be f2 82 b3 3e
       0.049725603 0.09345699 -0.16729017 0.3506084
0002a0 44 4d 65 3e 1a d2 4b be 11 ac c9 bc 11 2f 57 bf
       0.22392756 -0.19904366 -0.02461818 -0.8405619
0002b0 04 35 c4 bd 77 bb 8c 3d df 61 ac 3e 14 77 ae bc
       -0.095804244 0.068716936 0.3366842 -0.021297015
0002c0 2c 46 56 bf 29 58 9f 3e 54 ed 16 bc ae 73 1f bc
       -0.83700824 0.31121948 -0.009211857 -0.00973217
0002d0 4c 74 51 3e e1 9a 33 3e 56 f1 28 3d 33 29 6a 3d
       0.2045452 0.1753955 0.04124578 0.057168197
0002e0 8d b5 d6 be 36 7b dd bd 59 21 5b 3d e4 99 37 3e
       -0.41935387 -0.10814516 0.0534986 0.17929798
0002f0 0b 0f 21 3e b7 f5 54 3e 1a 9f 8e bc 83 e1 e8 3e
       0.15728395 0.20796858 -0.01740985 0.45484552
000300 cf 15 b1 bd b7 b6 aa 3e 1f 8d fb 3d 0e 06 44 be
       -0.08646738 0.33342525 0.12282776 -0.19142935
000310 fd a4 f9 3e cf eb da 3e 9a 4e 91 bf ea 69 4b 3f
       0.4875869 0.42758033 -1.1352112 0.7945849
000320 67 b3 23 bd fa cd 2a be c2 d5 8f 3e 45 b6 9e 3e
       -0.039966013 -0.16680136 0.28092772 0.30998436
000330 c3 74 85 3e 4b 46 82 be aa 99 14 bf 41 29 54 3f
       0.26065645 -0.25444254 -0.5804697 0.8287545
000340 db 3f 9f 3e 71 9d 88 3d cd 05 c7 bd 31 4d af 3d
       0.31103405 0.066706546 -0.09717903 0.08559645
000350 ae a1 1a be 80 88 9f be d2 bb a8 be 19 0e 90 3e
       -0.15100738 -0.3115883 -0.32955796 0.28135756
000360 4b 38 a8 be 2c d3 88 3e 85 9c 92 3e f6 6a 6b 3e
       -0.32855448 0.2672361 0.2863504 0.22990021
000370 6e 09 9d be 9c da 40 3e fd 7d d9 3c 37 13 a2 bd
       -0.30671257 0.18833393 0.026549334 -0.07913821
000380 87 d8 7a be dc 4b dc 3e c8 87 78 3e 7c 87 e4 3e
       -0.24496661 0.43026626 0.24270546 0.44634616
000390 94 ca ee 3d cc 71 37 3e 18 75 e3 3d 62 30 3b be
       0.116597325 0.17914504 0.11106318 -0.18280175
0003a0 49 fc eb 3d 4a c8 65 3e 1b 55 c2 3d 8b 75 af 3e
       0.11522729 0.22439685 0.09488889 0.34269366
0003b0 66 d4 3a 3e f2 50 58 3e 3a dc b9 3e da 0d b4 be
       0.18245086 0.21124628 0.36300832 -0.35166818
0003c0 ae 84 b8 3d 97 53 c1 be e3 2a 53 3d 26 bb 09 3e
       0.09009682 -0.37759086 0.05155457 0.13450298
0003d0 67 cf 29 bf ad 9e e8 3d c5 e2 9e 3d f1 7f 79 3e
       -0.66332096 0.1135839 0.077580966 0.24365212
0003e0 fc 03 a0 3d 8d 83 90 3c 20 16 78 3e 33 01 1e 3d
       0.0781326 0.017640853 0.2422719 0.038575362
0003f0 f4 bb 04 3f fa f1 d5 3d 32 a0 c4 3e 01 2c ec bd
       0.51849294 0.10446544 0.3840347 -0.115318306

fc1.bias f4 [128]
000000 ac fc e8 3d 5d df 4a bd 4c b0 d2 3d ac eb 54 3c
       0.11376318 -0.049529422 0.10287532 0.012995642
000010 44 e9 9d 3d 95 5e 8d 3d bf 24 f5 bd 63 0a cf bd
       0.077105075 0.06902806 -0.119698994 -0.10109403
000020 a6 6e 3a bd d7 71 ef bd 8f 65 ef 3c a4 e6 a1 3c
       -0.04551568 -0.11691635 0.029223232 0.019763298
000030 75 4b 8c 39 f8 7c 90 bd 22 db 0a bd ac 48 87 bd
       0.000267591 -0.07055086 -0.033900388 -0.06605658
000040 28 a8 8b 3d a0 3a e2 bd 7f 46 96 3d bf e9 6e 3d
       0.06819183 -0.11046338 0.07337665 0.058328386
000050 50 3e 05 bd a3 5d eb 3c 22 53 04 3d 0a bd 11 bb
       -0.03253013 0.028731173 0.032305844 -0.002223792
000060 c9 11 cd bd b0 48 47 bc 4f 5d dc bd fc 44 e8 bd
       -0.10013158 -0.012163326 -0.10759985 -0.11341283
000070 f7 bb 70 bd 64 83 91 bd 61 22 76 bc 7c b1 05 3d
       -0.058773007 -0.07105139 -0.015022845 0.032639965
000080 62 3a 6e bd 94 ab 37 bd 1c 2d ef 3d f4 99 42 3d
       -0.058161147 -0.044841364 0.11678526 0.047510102
000090 0b 1e e1 3b 15 fb b0 3d 32 d7 92 3d e4 9c 5d bc
       0.0068700365 0.0864164 0.071699515 -0.013526175
0000a0 f1 74 8d bd 5f 50 1a 3d a3 89 59 3c 75 b3 08 3d
       -0.069070704 0.037674304 0.013277444 0.03337427
0000b0 de 5e 55 3d 30 5a 04 3d 07 92 b2 3d b5 e1 67 bd
       0.052092426 0.032312572 0.08719259 -0.056611735
0000c0 35 ae 5d bd 80 8b 2e 3c 75 68 34 3c f6 dc ad 3c
       -0.054121215 0.010653377 0.011011233 0.021223526
0000d0 07 ff ab bd c4 29 a6 bd c0 eb 36 bc 25 00 bf bd
       -0.08398252 -0.08113435 -0.011164606 -0.093261994
0000e0 90 4f d6 bc a7 59 3b 3c d3 a7 cc bd 79 8c b3 3d
       -0.026160985 0.011434949 -0.099929474 0.087670274
0000f0 f0 2a 7e 3d 3b ff 8a bd 4d 1c ed 3a 38 e1 d9 3d
       0.062052667 -0.067869626 0.0018090099 0.1063866
000100 ba 31 00 bd 00 7d a5 bd 82 8a 72 3d a7 74 6b 3d
       -0.031297423 -0.080804825 0.059214123 0.057484295
000110 fe 1b 98 bd 70 bf d9 bd 95 7b 60 3b f4 d8 0a 3d
       -0.07427214 -0.10632217 0.0034253348 0.03389831
000120 73 a8 aa bd 3b 6e 7d 3b 18 e2 f6 3d d3 03 db bd
       -0.083329104 0.0038670439 0.12054843 -0.10694089
000130 fe 27 a9 3d ef a9 89 3d 2d 29 46 3d 41 2b c0 bd
       0.08259581 0.067218654 0.048379112 -0.0938325
000140 6e 59 a4 bb 2a af bf bd f7 0c 99 3d 2e 0e 98 bd
       -0.0050155437 -0.09359582 0.07473176 -0.074245796
000150 35 a6 d2 bd 86 84 8e 3d 37 08 34 3d e1 73 25 bd
       -0.10285608 0.069588706 0.043953147 -0.040393714
000160 43 e4 55 bd dd aa d3 bc 07 97 d8 3d f3 28 81 3d
       -0.05221964 -0.02583831 0.10575681 0.063066386
000170 d4 f4 f6 3d 63 df db bd b4 40 84 bd 5e 03 50 3d
       0.12058416 -0.10735967 -0.06457654 0.05078446
000180 e5 82 c8 3d 1d 94 05 3c 80 79 41 bc d6 1a c1 bd
       0.09790591 0.008152989 -0.011808753 -0.09428947
000190 1f ad d7 bd 24 5e 22 bd 7e 46 59 bc 1d 95 2f bd
       -0.10531067 -0.03964056 -0.013261436 -0.042866815
0001a0 e8 bf fe 3a 3b a1 b0 bd 53 d4 c0 bd 37 a7 f3 3d
       0.0019435855 -0.08624502 -0.09415498 0.11897128
0001b0 d1 34 f4 bd b6 d2 78 3b 5f 9a f1 bd 0a f5 fa bd
       -0.119241364 0.003796739 -0.11797022 -0.12253769
0001c0 b9 05 97 3c 43 d1 f9 3d 49 d6 f2 3d fe 20 80 bd
       0.018435346 0.12198117 0.11857278 -0.06256293
0001d0 d8 3a 19 bc 4d 64 9d bd ff 42 d4 bd 10 18 c3 bc
       -0.009352408 -0.076851465 -0.10364341 -0.023815185
0001e0 4e 9c 82 3d e3 49 82 3d fc 89 f6 ba 7d 0d 93 bd
       0.06377469 0.06361749 -0.0018809433 -0.07180307
0001f0 27 a2 0e bd ac 9e 43 bc 05 54 d8 3d 30 0f 9a 3d
       -0.03482261 -0.011939686 0.105629005 0.07522428

bn1.weight f4 [128]
000000 27 42 99 3f f6 5a 91 3f 4a 77 55 3f e6 6d 90 3f
       1.1973313 1.1355884 0.83385146 1.1283538
000010 6d ec 5e 3f d1 96 72 3f c2 db 6b 3f e1 a9 8c 3f
       0.8707951 0.9476138 0.921322 1.0989343
000020 64 bd 93 3f 8a 4b 93 3f f6 a5 8b 3f 74 63 88 3f
       1.1542172 1.1507428 1.0910022 1.0655351
000030 3e 57 86 3f e6 b3 8c 3f ae 46 63 3f ea 97 a8 3f
       1.0495374 1.0992401 0.88779724 1.317136
000040 20 7d c3 3f bd 4a 80 3f 4b 58 6e 3f fd c1 81 3f
       1.527256 1.0022808 0.93103474 1.0137326
000050 29 56 84 3f 39 90 69 3f cb e4 8d 3f 8e 90 54 3f
       1.0338794 0.9123569 1.1085447 0.8303307
000060 48 06 80 3f 4d c0 85 3f 4c d0 71 3f b1 41 83 3f
       1.0001917 1.044931 0.9445846 1.0254422
000070 17 44 9c 3f d2 f7 8d 3f 53 07 8a 3f b9 2e 64 3f
       1.2208279 1.1091254 1.0783485 0.89133793
000080 a6 bd 92 3f 08 94 7d 3f 9a 9a 97 3f 6e b8 5c 3f
       1.1464126 0.99054 1.1844056 0.8621892
000090 a1 e1 8a 3f c7 f1 58 3f 50 73 94 3f 72 e9 71 3f
       1.0850106 0.8474392 1.159769 0.94496834
0000a0 6b f5 4e 3f c5 05 82 3f 97 72 91 3f d7 a2 8d 3f
       0.8084323 1.0158011 1.1363095 1.106532
0000b0 9b fc 8a 3f 3a 91 a2 3f fd 8e 9d 3f 7c 42 80 3f
       1.0858339 1.270057 1.2309262 1.002029
0000c0 c0 2c 64 3f 52 96 93 3f d4 a8 7b 3f bd a8 73 3f
       0.89130783 1.1530249 0.98304486 0.9517935
0000d0 64 6d 8d 3f c0 ce 6a 3f ca 00 87 3f 02 8a 83 3f
       1.1049008 0.91721725 1.0547116 1.0276492
0000e0 8f 0e 82 3f 08 01 6c 3f 81 f3 73 3f 0e d4 82 3f
       1.0160693 0.92189074 0.9529343 1.0220964
0000f0 70 34 86 3f ea b7 77 3f e1 3b 7e 3f 72 18 94 3f
       1.0484753 0.96765006 0.9931012 1.156996
000100 98 8f 47 3f 84 69 58 3f 92 bf 96 3f 24 76 53 3f
       0.7795348 0.84536004 1.1777213 0.82602143
000110 83 65 85 3f bc 2d 69 3f 86 ab 6e 3f a6 b9 8e 3f
       1.0421604 0.9108541 0.93230474 1.1150405
000120 5c 70 80 3f d5 1e 66 3f c9 03 a0 3f 13 7e 8e 3f
       1.0034289 0.89890796 1.2501155 1.1132225
000130 ac 95 8a 3f 52 e1 6f 3f e5 7c 66 3f 02 d4 55 3f
       1.0826926 0.93703187 0.90034324 0.83526623
000140 06 af 8f 3f 76 9f 7f 3f 4b 09 8e 3f 46 46 6b 3f
       1.1225288 0.99852693 1.1096586 0.91904104
000150 62 66 78 3f 02 f6 8a 3f 05 ce 79 3f 17 7e 95 3f
       0.97031224 1.0856326 0.97579986 1.1679105
000160 95 cf 82 3f 24 9d 59 3f 60 cd 7a 3f 49 31 54 3f
       1.0219599 0.850054 0.9796963 0.82887703
000170 5e 04 8a 3f 98 1e 8a 3f aa e0 6d 3f c5 b4 64 3f
       1.0782583 1.0790586 0.92920935 0.8933833
000180 7b 63 9c 3f f6 12 54 3f 11 e1 6d 3f 3e cb 6b 3f
       1.2217859 0.8284143 0.9292155 0.92107
000190 86 d9 a5 3f 8f c8 42 3f 23 ff 79 3f b4 4c 63 3f
       1.2957008 0.7608728 0.9765493 0.88788915
0001a0 1f 5d 5b 3f c9 a0 8c 3f 2c b3 89 3f 78 e2 80 3f
       0.85688967 1.0986568 1.0757804 1.0069113
0001b0 03 bb 97 3f 90 ec 7c 3f e5 34 6d 3f 94 59 9b 3f
       1.1853946 0.98798466 0.92658836 1.2136712
0001c0 82 e6 7c 3f c8 6c 74 3f f0 b6 73 3f 8b ba a8 3f
       0.98789227 0.95478487 0.95201015 1.3181928
0001d0 3e e5 9a 3f 9f 10 7e 3f 93 97 7e 3f 44 e7 8b 3f
       1.2101209 0.9924411 0.99450034 1.0929952
0001e0 22 4a 92 3f e2 3b 96 3f 7d a2 6f 3f 60 f2 82 3f
       1.1428874 1.1737025 0.9360731 1.0230217
0001f0 dc 85 76 3f 4f aa 5d 3f 8d 82 6b 3f 08 e9 91 3f
       0.96298003 0.86587995 0.9199608 1.139924

bn1.bias f4 [128]
000000 6c 72 2b bf 78 34 d7 be bc eb 2e be 02 52 19 bf
       -0.6697147 -0.42032218 -0.17082113 -0.5989076
000010 93 ce ed be b8 fb 65 be 70 25 ab be 43 97 e4 be
       -0.46446666 -0.22459304 -0.33427 -0.44646654
000020 55 22 f9 be 18 75 f8 be 7d 4b 48 be 05 4e 92 be
       -0.48659006 -0.48526835 -0.19560046 -0.2857515
000030 0a d8 19 bf 20 1c 0a bf 14 03 5e bc 7c 31 19 bf
       -0.60095274 -0.53949165 -0.013550539 -0.5984113
000040 db 15 85 bf 5e 3f 4e be cb d4 75 be fd fb 0e bf
       -1.0397295 -0.2014136 -0.24006955 -0.55853254
000050 c0 69 ef be 9c 4e 9c be f1 b6 f4 be fa 20 48 be
       -0.46760368 -0.30528724 -0.47795823 -0.1954383
000060 e6 64 14 be cc 16 96 be f6 dd 78 be 96 ab 8d be
       -0.14491615 -0.29314268 -0.24303421 -0.27669972
000070 ad 1b de be 1a 0f e0 be 87 e6 8a be 2e 8e aa be
       -0.4338049 -0.43761522 -0.27129003 -0.333116
000080 4d 7d b4 be 5f 6f fa be 5f dd e6 be 4e 3c 15 be
       -0.35251847 -0.48913094 -0.45090768 -0.14573786
000090 98 6f 00 bf 8d 02 8c bd 39 ce e0 be 4c 3e e5 be
       -0.5017028 -0.06836424 -0.43907335 -0.4477409
0000a0 fd 8d 54 be 75 db 1b bf 39 89 ef be d8 a7 0b be
       -0.20757289 -0.6088174 -0.4678438 -0.13638246
0000b0 f2 5d 1a bf 49 aa c3 be 2e c1 9a be 1c 61 a1 bd
       -0.602996 -0.38215855 -0.3022551 -0.0787985
0000c0 f7 6f c0 be a6 8f 74 be 0a a3 86 be 46 9d 09 be
       -0.37585422 -0.23882923 -0.26296264 -0.13438901
0000d0 d4 49 19 bf a3 fe 75 be 02 40 03 bf 63 2f 0e bf
       -0.5987828 -0.24022917 -0.51269543 -0.55541056
0000e0 7e 14 0f be d2 f5 a0 be 09 70 eb be 8c 76 1d bf
       -0.13972661 -0.31437546 -0.45983914 -0.61509013
0000f0 63 b4 f6 be c9 45 b4 bd 25 f4 c7 be 20 51 0c bf
       -0.481845 -0.08802373 -0.39053455 -0.54811287
000100 00 18 92 bc e5 0a 94 bd ab 53 ce be a7 9e 9b be
       -0.01783371 -0.072286405 -0.4029821 -0.3039448
000110 8c cf e3 be b8 f7 e9 be 8f cb 3d be 05 8b 12 bf
       -0.44494283 -0.45696807 -0.18534683 -0.57243377
000120 db 86 36 be 65 60 9d be 8e 4e f0 be da 8b cd be
       -0.17824881 -0.30737606 -0.46934932 -0.4014576
000130 65 2e cf be 10 5a 2d be 85 7d c8 be df 55 84 be
       -0.40465084 -0.16928887 -0.39158264 -0.25846764
000140 92 69 13 bf a6 37 ab be 9d 23 81 be 9f 28 2e bf
       -0.5758296 -0.33440894 -0.25222483 -0.6803073
000150 2c 9b b4 be d5 da 06 bf 50 db f3 be 4c 93 e6 be
       -0.35274637 -0.5267766 -0.4762826 -0.45034254
000160 9f e1 ac be 6d d4 06 be 67 a2 e9 be db 99 a9 bd
       -0.33765885 -0.13166972 -0.45631716 -0.08281299
000170 ee de 0e bf d7 c6 01 bf c4 4e f6 bd d2 eb 1f be
       -0.55808914 -0.5069403 -0.12026742 -0.15617302
000180 6f 2d 13 bf d2 32 a8 be ce ea 1d be d0 72 a7 be
       -0.574912 -0.32851273 -0.15421602 -0.32704782
000190 f1 a4 3e bf e9 6e db 3d 9f f5 65 be e4 9a f3 bd
       -0.7447043 0.10714514 -0.22456978 -0.118947774
0001a0 90 97 c8 be ad 29 bc be 86 39 f8 be c0 e9 d6 be
       -0.39178133 -0.36750546 -0.48481387 -0.41975212
0001b0 07 cb 98 be 50 a3 e5 be 61 76 a8 be 6f 8b fc be
       -0.29842398 -0.4485116 -0.32902816 -0.4932513
0001c0 7d 6e d7 be 51 f2 82 be 81 49 32 be 4b fc 32 bf
       -0.42076483 -0.25575498 -0.17410852 -0.6991622
0001d0 0a 0c 14 bf e4 f9 d9 be 29 aa 95 be 8e 9a df be
       -0.5783087 -0.42573464 -0.29231384 -0.43672603
0001e0 26 8e df be 96 24 c8 be 02 c6 e6 be 39 68 a1 be
       -0.43663138 -0.39090413 -0.45072943 -0.31524828
0001f0 f1 22 b9 be a3 62 e7 be 2d 12 86 be 4f d4 9c be
       -0.3615947 -0.4519244 -0.26185742 -0.3063073

bn1.running_mean f4 [128]
000000 50 c5 b6 be 97 ff 35 41 93 e5 a1 3f ae 64 35 41
       -0.35697412 11.3749 1.2648185 11.33708
000010 67 eb ac 40 e0 7e d2 c0 38 1b 69 40 2a 33 f7 3f
       5.4037356 -6.5779877 3.6422863 1.9312489
000020 85 dd 94 3d b0 4c 26 c0 9a a8 66 40 26 c7 45 41
       0.07268814 -2.5984306 3.6040406 12.36112
000030 e9 2f 4f 3f 0d f0 18 41 cd bc 3d 40 0d 67 12 41
       0.8093248 9.558606 2.9646485 9.150159
000040 dc 10 2c 41 88 b1 7a c0 19 7d cb c0 49 87 2a 41
       10.754116 -3.9170856 -6.3590207 10.658029
000050 f4 8f 26 3e e3 5e 3b c1 25 c8 9e 40 c9 a2 fb 3f
       0.16265851 -11.710666 4.9619317 1.9659053
000060 67 78 7a 3e 77 70 47 c0 f6 06 83 be d2 a5 b4 40
       0.24459992 -3.1162393 -0.25591248 5.6452417
000070 5c fa 8c c0 88 d8 8e c0 c2 f7 09 41 e4 87 b3 c0
       -4.4055614 -4.463932 8.622988 -5.610338
000080 f5 b7 d2 bf aa f6 3f 40 22 ee 52 40 33 62 9a 3f
       -1.6462389 2.9994302 3.2957845 1.2061218
000090 21 b0 ec 40 a0 5b 2d 41 43 4c fd 3f 4c 2e 94 c0
       7.3965 10.834869 1.9788898 -4.6306515
0000a0 80 bc c7 c0 91 8f 0d c1 01 19 f1 40 51 d0 84 c0
       -6.2417603 -8.84755 7.534302 -4.1504292
0000b0 bf 69 04 c1 ce 7e 80 41 41 8d e7 bf e5 d4 0a 41
       -8.275817 16.061916 -1.8089982 8.676976
0000c0 f7 b4 57 3e 53 7e 56 41 23 0b 12 c1 e0 1b ec c0
       0.21065126 13.405841 -9.127719 -7.3784027
0000d0 6a 30 bf 40 07 f9 1f 40 e2 c6 2e 40 1a 71 d2 c0
       5.97466 2.4995744 2.7308888 -6.5763063
0000e0 a0 47 f4 c0 74 03 84 c0 a3 64 27 c0 2a 00 d3 c0
       -7.6337433 -4.1254215 -2.6155174 -6.59377
0000f0 4b c9 aa c0 5e 31 3d 3f 96 76 a4 40 e7 ea b8 c0
       -5.337072 0.73903453 5.139476 -5.7786746
000100 45 d6 b4 40 f0 2e f2 40 72 7a 99 40 d0 16 aa c0
       5.651156 7.5682297 4.796197 -5.3152847
000110 71 c5 06 41 68 7e a0 bf 29 2f f2 3f 94 30 01 41
       8.423203 -1.2538576 1.8920642 8.07436
000120 b8 02 fa bf 78 76 97 c0 90 fc 3a 40 e8 b4 36 41
       -1.953208 -4.7332115 2.9216652 11.419167
000130 37 cf cf c0 02 23 e9 3f 16 35 45 bf 04 d1 73 bf
       -6.494045 1.8213809 -0.7703413 -0.9524081
000140 98 53 17 40 c3 e9 58 c0 b7 ff 1c 41 82 82 b2 40
       2.3644772 -3.3892677 9.81243 5.578431
000150 5c 03 5c 41 17 11 b7 40 a9 67 1c 41 b7 5a 1c 41
       13.75082 5.720836 9.775308 9.772147
000160 75 00 15 c1 1e e5 47 c1 34 82 ad 40 a0 b1 52 c0
       -9.312612 -12.493437 5.422144 -3.2920914
000170 b8 e5 17 41 2f 68 af 40 57 e3 94 c1 91 d7 4e bf
       9.493584 5.4814677 -18.611006 -0.8079768
000180 6b 05 65 c0 d6 3e af 40 7f 66 a6 c0 7c 91 7f bf
       -3.5784557 5.4764204 -5.2000117 -0.99831367
000190 2f 7d 8f 40 ee 8c c4 c0 c6 19 15 40 54 c7 78 c1
       4.484031 -6.1422033 2.329698 -15.548664
0001a0 0c 71 35 3e b6 05 53 c1 b7 52 7b 3a 66 a7 63 c0
       0.17718905 -13.188894 0.00095872156 -3.5570922
0001b0 92 4f a6 bf 3b 35 89 c0 0c 3d d2 c0 d9 5d 3e 40
       -1.2993033 -4.287748 -6.569952 2.974478
0001c0 1e bf 31 c0 5c 0b 17 40 a7 fb 14 41 5e a6 22 c0
       -2.7772899 2.3600683 9.311439 -2.5414042
0001d0 0c 44 38 41 4f 99 89 c0 83 3f b8 40 56 50 3e c1
       11.516613 -4.2999644 5.757753 -11.894613
0001e0 9f 79 1c 40 ab 6c 83 c1 0e 8b 49 c0 52 47 39 41
       2.4449232 -16.42806 -3.1491122 11.579912
0001f0 59 f5 98 40 dd f9 74 40 a3 dc e0 c0 f2 d9 a8 40
       4.7799497 3.8277504 -7.026933 5.2766047

bn1.running_var f4 [128]
000000 a9 8f c7 42 81 b2 aa 42 b3 db 81 42 48 77 a3 42
       99.78059 85.34864 64.9291 81.73297
000010 cc 04 64 42 c0 ef 9e 42 a2 65 62 42 ea 52 67 42
       57.004684 79.46826 56.59925 57.83097
000020 34 61 9f 42 57 6a 84 42 11 5c f4 42 ad 52 5e 42
       79.68985 66.207695 122.17982 55.580738
000030 b1 2f 86 42 f0 f5 7b 42 0e e5 65 42 9e 13 d0 42
       67.09315 62.990173 57.473686 104.038315
000040 c3 92 71 42 9d 2a a6 42 25 c2 70 42 08 b0 83 42
       60.393322 83.08323 60.189594 65.84381
000050 b5 81 b7 42 78 63 85 42 29 a5 8e 42 f8 6e 4e 42
       91.753334 66.694275 71.32258 51.608368
000060 e3 8c b3 42 0c 74 be 42 5b 80 5b 42 24 34 a2 42
       89.77517 95.226654 54.875347 81.10184
000070 7c 52 ee 42 39 31 88 42 4f 24 dc 42 f5 f0 c4 42
       119.1611 68.09614 110.070915 98.47062
000080 fc d7 c4 42 5f 2e 64 42 32 1d 9a 42 b1 d2 85 42
       98.421844 57.045284 77.05702 66.91151
000090 b0 50 94 42 64 e0 b6 42 7e d4 91 42 da 5e 9c 42
       74.15759 91.43826 72.91502 78.18526
0000a0 50 38 80 42 be 01 61 42 9f 11 05 43 98 d2 ea 42
       64.109985 56.2517 133.06883 117.411316
0000b0 3f 89 a6 42 f3 79 f8 42 51 39 99 42 87 ea a5 42
       83.26806 124.23818 76.611946 82.95806
0000c0 2c 9e 61 42 43 a7 ab 42 db bc ac 42 e7 0f b7 42
       56.404465 85.82668 86.36886 91.53106
0000d0 5f aa 8b 42 ac 6f 87 42 1b 0b 93 42 86 e6 9f 42
       69.832756 67.71811 73.52169 79.95024
0000e0 4b 85 84 42 c0 ea 84 42 24 39 5d 42 8a 3b 7f 42
       66.26034 66.458496 55.3058 63.808144
0000f0 6c 48 c8 42 60 3a 8d 42 cd 36 66 42 18 e3 00 43
       100.14145 70.61401 57.553516 128.88708
000100 0e eb 6f 42 5a 48 65 42 e3 da 96 42 76 8d 6b 42
       59.979546 57.320656 75.42751 58.888145
000110 d7 0a 92 42 36 dc 70 42 2f 1b a1 42 63 22 8d 42
       73.02117 60.21505 80.55309 70.56716
000120 3a 90 8f 42 6b 3a 91 42 c6 92 a9 42 f2 1a 8f 42
       71.78169 72.6141 84.78667 71.55263
000130 ec ca 99 42 0e dc 4e 42 bc 85 b6 42 7c bd 73 42
       76.89633 51.714897 91.2612 60.935043
000140 50 28 48 42 e5 3e 5c 42 16 7f cc 42 e3 a7 41 42
       50.039368 55.06142 102.248215 48.41395
000150 9f 10 b3 42 52 56 5e 42 92 a7 4a 42 a4 e6 a7 42
       89.53246 55.584297 50.663643 83.95047
000160 c0 1a fb 42 09 93 b0 42 cd 14 81 42 56 f9 55 42
       125.552246 88.28718 64.54063 53.493492
000170 dc 94 51 42 de 86 82 42 16 af 0a 43 bb d9 5d 42
       52.39537 65.26341 138.68393 55.462627
000180 83 4e de 42 8d d2 74 42 77 e2 04 43 aa da 78 42
       111.15334 61.205616 132.88463 62.21354
000190 73 1d aa 42 9a ac 6d 42 38 9b 5e 42 ef d8 be 42
       85.05752 59.418556 55.65158 95.4237
0001a0 7d de 88 42 87 a3 27 43 0a ef 5c 42 09 5b 55 42
       68.43455 167.63878 55.233437 53.3389
0001b0 8e 07 f3 42 fc 16 74 42 cf 46 8c 42 3f 0c a1 42
       121.514755 61.022446 70.1383 80.52392
0001c0 31 e9 96 42 59 c1 79 42 a8 63 5b 42 35 91 e6 42
       75.45545 62.438816 54.84732 115.28361
0001d0 29 d8 c1 42 97 18 b3 42 a0 09 94 42 4e b2 8a 42
       96.92219 89.54803 74.0188 69.34825
0001e0 c8 47 92 42 7d 0c cb 42 73 04 a6 42 4d 32 89 42
       73.1402 101.52439 83.00869 68.59824
0001f0 92 c2 74 42 e1 b6 55 42 ce 59 8a 42 90 9e b2 42
       61.19001 53.428593 69.1754 89.30969

fc2.weight f4 [128, 128]
000000 3a 6f 8d be d1 4a a0 3e 94 96 9a 3e 1e 34 49 3e
       -0.27623922 0.3130708 0.30193007 0.19648787
000010 ae fe b6 be a3 b2 ca be 15 21 50 3c 47 8b db 3d
       -0.3574118 -0.39589414 0.0127032 0.107199244
000020 72 4c a9 3e 54 5f 1d bf 50 4f 70 bd a7 81 96 be
       0.33066136 -0.61473584 -0.05866939 -0.29395792
000030 2f 3b 50 3e 37 4d 89 be ba f5 bc be c1 2e 4f 3d
       0.20335077 -0.26816723 -0.36906224 0.050581697
000040 5e 7d 90 bd e5 b3 17 bf 6f aa ae be 6e a3 24 3d
       -0.07055162 -0.5925887 -0.34114406 0.04019492
000050 16 e7 83 be 98 64 cf 3c 42 d2 48 be 2a 62 3f be
       -0.25762242 0.025316522 -0.19611457 -0.1868979
000060 bf 35 b8 bd d6 61 b6 3e 30 2d 79 be dc aa be be
       -0.08994626 0.35621518 -0.24333644 -0.3723973
000070 66 57 3d 3e 4b a2 2b 3d 69 14 a4 3e 0d 9f 97 3d
       0.18490371 0.04190282 0.32046822 0.074033834
000080 02 84 c7 3e 4f f9 a4 bd 54 69 b2 bc cf 6e 45 be
       0.389679 -0.08055364 -0.02177874 -0.19280551
000090 94 7f b5 be 01 d9 12 bf df f4 24 3e 6a 75 37 be
       -0.35448897 -0.5736237 0.16109036 -0.17915884
0000a0 cb b6 af 3e 4f d8 e9 3c 14 1c a5 be 54 51 8c be
       0.34319147 0.028545527 -0.32247984 -0.27405798
0000b0 d5 5d 8b 3d 1d 4d c9 be 80 f9 d2 bd 19 59 92 3c
       0.068050064 -0.39316645 -0.103014946 0.01786475
0000c0 b6 77 9b bc 77 03 cc 3d 2b e9 2b bc d2 13 e7 bd
       -0.018977981 0.09961598 -0.010492603 -0.11283077
0000d0 49 d6 72 be 83 40 36 3e a6 51 c9 3e dc 2b 29 bc
       -0.23714556 0.17798047 0.39320105 -0.010325398
0000e0 1e cd a0 be ad c9 01 3f f1 cf 49 bd 95 cb 85 be
       -0.31406492 0.5069836 -0.049270574 -0.26131883
0000f0 66 ad cc 3e 95 1d 0f 3e 97 bd f2 3d f2 fb c6 3e
       0.39976043 0.13976128 0.11852568 0.38864094
000100 68 7d 2d 3e d4 67 8d 3e 17 51 fa 3e 15 3a 40 3e
       0.1694237 0.27618277 0.48889992 0.18772157
000110 e6 f3 d3 3e f3 9e d7 bd 0a 5b 59 be b5 65 ca be
       0.41397017 -0.10528364 -0.21226135 -0.3953072
000120 d5 d8 77 be c4 c7 fd 3c d4 31 39 be 45 e0 78 3e
       -0.24203809 0.030979045 -0.18085414 0.24304302
000130 5e d9 d1 be fe 6d a0 3d 17 20 43 3e c8 24 08 bf
       -0.4098615 0.07833479 0.1905521 -0.53181124
000140 a6 9e c1 be 58 7d a0 3d d6 55 ce bd 60 2c 10 3f
       -0.37816352 0.078364074 -0.10074966 0.5631771
000150 ce b8 85 3d 10 99 09 bd 53 ef a4 3e e5 32 13 3e
       0.06529389 -0.033593237 0.3221384 0.14374883
000160 af e1 db 3e 17 ee 14 bf d9 e1 07 be 64 f2 04 3e
       0.4294562 -0.58175796 -0.13269748 0.1298309
000170 47 a8 cd 3e 85 17 da 3d 91 a1 17 bf db c6 cb be
       0.40167448 0.10649017 -0.59230906 -0.39800152
000180 a8 43 ae be b6 f8 0a bf fd 9d 71 3e d0 3e 6f 3e
       -0.34035993 -0.5428575 0.23595424 0.23363805
000190 7e 0a 21 be 67 67 bb 3e 11 9d cc 3e a8 8a 21 be
       -0.15726659 0.36602327 0.39963582 -0.1577555
0001a0 07 8a 13 3d 21 e7 b8 bc 4a d7 92 3e 4e c1 d7 3e
       0.036020305 -0.022571148 0.28679878 0.42139667
0001b0 d7 82 8c 3e 2b d3 48 bd 58 80 b6 bd fb 56 9e be
       0.27443573 -0.04902951 -0.089111984 -0.30925736
0001c0 27 c3 e9 3e 8c d7 c9 bd 38 ec 7a be 28 57 8c bf
       0.45656702 -0.098555654 -0.24504173 -1.0964098
0001d0 8a ab 0d bf d5 1b 07 be 93 f0 d9 3d 86 ac 9f 3e
       -0.5533987 -0.13194211 0.10641589 0.31186312
0001e0 85 c5 be 3d fa e3 52 3e 2d 3c e5 be 07 f8 67 be
       0.093150176 0.20594779 -0.44772473 -0.22653209
0001f0 0d 06 ee bd e2 1f 00 3f b7 ae 9c 3e f4 d0 8f 3e
       -0.11622248 0.5004865 0.30602047 0.28089106
000200 ff 6f 57 bf 7f 7a 1e bf a0 65 8c 3e be 91 13 be
       -0.8415527 -0.61905664 0.27421284 -0.14411065
000210 f5 f5 94 3c 0d 35 a0 be 96 07 ee 3d 86 5c ab bc
       0.018183688 -0.31290475 0.11622541 -0.020918142
000220 d4 09 77 3e 72 68 7e 3d df 9d 1c 3f 49 cd ab 3b
       0.24124843 0.062111326 0.6117839 0.0052429778
000230 12 28 c4 be 0a 39 8e bc 8b 6d 7b 3e 91 78 c4 be
       -0.3831182 -0.017361183 0.24553506 -0.38373235
000240 26 ba bc bc d0 bb 17 bc f7 04 49 bd dc 74 40 bc
       -0.023037981 -0.009261087 -0.049077 -0.011746611
000250 ae b0 50 3d 32 a4 aa bd 0f 1b 15 3e 33 58 61 be
       0.050949745 -0.08332099 0.14561103 -0.22006302
000260 6f 1b 12 3f 92 bd ab bd 4d 12 a3 bd dc 72 06 3e
       0.5707311 -0.08385767 -0.07962475 0.13129753
000270 99 ad 01 bd 3b 33 3e bd 93 19 15 be 10 41 76 3d
       -0.031659696 -0.046435576 -0.14560537 0.060120642
000280 09 69 23 bd 27 21 9d bd c3 2e 8e 3e 0e 60 72 3e
       -0.03989509 -0.07672339 0.2777005 0.23669454
000290 cc aa 78 3e fc f3 9e 3e c4 60 0e be 5f fe e9 bd
       0.24283904 0.3104552 -0.139041 -0.114254706
0002a0 c1 15 ce be ab 07 91 3d 0b 00 3a 3e d8 e0 7e 3a
       -0.40250972 0.07081541 0.18164079 0.00097228354
0002b0 69 44 21 3e 22 46 d4 3c 6a 7b 1c bf 1a 1d c8 3d
       0.15748753 0.025912348 -0.61125815 0.09771176
0002c0 bc c9 fe be 66 62 9b 3e 62 c5 db bc 9b 7d 68 be
       -0.49763286 0.3034851 -0.026827518 -0.22704165
0002d0 85 4a c9 be dc c7 bc be 1f 3a 9e 3d 87 33 35 3e
       -0.39314666 -0.3687123 0.077259295 0.17695437
0002e0 30 b1 68 3e 39 03 85 3d 33 01 1d 3e b6 be 5e 3e
       0.22723842 0.06494755 0.15332489 0.21752438
0002f0 7e 0b 30 3e b5 05 3c be 21 05 2b 3f 48 8f 9e 3d
       0.17191884 -0.18361552 0.668047 0.077421725
000300 04 47 7a ba 34 e5 a1 3e 2c 6f a1 bf 08 c6 28 3e
       -0.00095473253 0.3162018 -1.2612052 0.16481793
000310 f8 9e a5 3d 7a 13 26 3e 99 46 49 3e c4 0a 13 3e
       0.080869615 0.16218367 0.19655837 0.14359576
000320 39 6b 96 bb 11 71 01 bf 82 3c 2d 3e 7f 6b a5 3e
       -0.0045904187 -0.5056315 0.16917613 0.32308576
000330 ab 3d d2 3e 1c 3c e7 3c 8e 2b d1 3e 53 3f 78 3e
       0.41062674 0.028226905 0.40853542 0.24242906
000340 41 0f 10 3e 0b 4e 40 be 69 df 59 be ad 7f 0d 3f
       0.14068319 -0.18779771 -0.2127663 0.5527294
000350 f5 59 b6 3d ff 2e 3c be 80 b4 72 be 73 7a fa 3e
       0.08903877 -0.18377303 -0.23701668 0.48921546
000360 af 8d 43 be e7 67 c1 3e a1 ba 3a 3e 34 b6 e6 bd
       -0.19097017 0.37774584 0.18235256 -0.11265221
000370 64 c1 d4 bd e9 8e f3 3b f9 e9 99 bc 4c b6 bb 3d
       -0.10388449 0.0074328077 -0.018788325 0.0916563
000380 84 7c 23 bd 71 d7 4c bc d0 dc 02 3f d7 f6 c5 be
       -0.03991367 -0.012502537 0.51118183 -0.38664886
000390 1e dc 2c bf 22 f5 2b 3f 9a 92 d7 3e 2b 8f be 3e
       -0.6752337 0.6717092 0.42104036 0.37218603
0003a0 7f 57 ea 3d 4a 73 8c 3d 80 f3 a6 be 1e 42 8f 3c
       0.1144247 0.06857927 -0.3260765 0.017487582
0003b0 6a da 4e 3e 9c f1 12 bd 0a 1e 3f bf 1c 8f 95 3d
       0.20200506 -0.035874948 -0.7465521 0.073026866
0003c0 fb 45 ee bd 4c 25 01 bf dd 7b 09 3e 1b e4 5b bf
       -0.116344415 -0.50447536 0.13426156 -0.85894936
0003d0 0e 9f 9c bf 04 4d 84 be 76 b5 a8 3e 8a 29 ab 3e
       -1.223604 -0.25840008 0.32950944 0.3343013
0003e0 55 2c 81 be 46 7f 5e 3e 5a 00 3b 3e 0f 1f 99 be
       -0.25229135 0.21728238 0.18261853 -0.29906508
0003f0 22 d7 a3 3e f2 3d 67 3e f0 3d 5e bd ee 06 96 bc
       0.3200007 0.22582224 -0.054258287 -0.018313851

fc2.bias f4 [128]
000000 da f9 47 3d 0f 04 b3 bd ba eb 73 3d b4 7a a5 3c
       0.04882226 -0.087410085 0.05955098 0.020200111
000010 48 44 b5 bd f1 25 73 bd d6 48 32 bd 0c b2 43 3b
       -0.08850914 -0.059362356 -0.043526493 0.0029860763
000020 9a 45 79 bd f3 62 37 bd 51 70 a0 bd 10 7c b7 3d
       -0.060857393 -0.0447721 -0.07833923 0.0895921
000030 45 60 ae 3c 37 6c da 3b eb d7 42 bd 81 92 92 3c
       0.02128614 0.0066657322 -0.047569197 0.017892124
000040 81 52 60 bd 43 bf 15 bd 6c 55 47 bd e4 21 a0 bd
       -0.05476618 -0.036559355 -0.04866545 -0.07818964
000050 63 b2 24 bd e8 a2 bc bb ae fd d9 bc 32 2e 17 bd
       -0.040209185 -0.0057567246 -0.026610222 -0.03690929
000060 a4 e9 0e be 63 cd 84 3b d0 a1 c3 3d 1d f8 40 3d
       -0.13956314 0.0040528043 0.09552348 0.04711162
000070 91 cb 9b bd 14 bb 24 bd 11 96 25 3b ba 4c d1 bd
       -0.076071866 -0.040217474 0.0025266449 -0.102197126
000080 7f 8c 91 3d 56 97 2c 3d a8 c1 27 bd 57 b7 e9 3c
       0.07106876 0.042136513 -0.04095617 0.028529806
000090 14 e8 1f bd e1 9e 61 3b 4b b3 49 3d b2 b2 5e 3d
       -0.039039686 0.0034426975 0.049243253 0.054369636
0000a0 bb 61 88 3d 6d 20 cf bd 6b 4b 22 bc 80 47 6f 3c
       0.066592656 -0.101136066 -0.009905676 0.014604449
0000b0 b8 b1 27 3d b5 6b 1f bd 31 51 ad bd 44 f8 f2 bc
       0.04094097 -0.038921077 -0.08462752 -0.029659398
0000c0 7e 83 d9 bd 70 ea 6a bc 8e 92 79 3d 4f c9 56 3d
       -0.10620783 -0.014338121 0.06093078 0.052438077
0000d0 07 28 cf bc bb 8a 78 bc 0c 3c 09 ba 73 5d 90 bc
       -0.025287641 -0.015169795 -0.0005235083 -0.017622685
0000e0 81 67 6a bd 6c da 57 bd e4 9a 86 3c c0 f7 7b 3d
       -0.057227615 -0.052698538 0.01643128 0.06151557
0000f0 5f 71 a6 bc 9a f7 60 3c ca f7 32 bc 19 5b bb 3b
       -0.020317731 0.013730908 -0.010923335 0.005717647
000100 5d e6 03 bd 1b c0 4b 3d 72 0e 25 bd 0d 55 2c 3d
       -0.032202113 0.049743753 -0.04029698 0.0420733
000110 76 cc 90 3c 60 5c a5 bb 28 fc 98 bd 70 28 fe bc
       0.01767562 -0.0050464123 -0.0746997 -0.031025141
000120 a4 c1 ac 3c 5e e4 b2 bd ed 45 fa 3c 79 f6 75 bd
       0.021088429 -0.08734964 0.030550921 -0.060049508
000130 4e 73 aa bd 52 63 03 3d 78 34 bb bd 70 18 bc bd
       -0.08322774 0.03207714 -0.09140867 -0.091843486
000140 81 4a 81 bd 12 3d 42 3d b0 17 81 3d b4 7c 9b bc
       -0.063130386 0.047421522 0.06303346 -0.018980362
000150 73 97 1c 3d 46 fe 62 3d 97 fd 9c bd da 1a ba 3c
       0.03823037 0.055418275 -0.07665556 0.022717882
000160 57 ef 3f bd eb 8f 89 3d 0b 24 0b bc b0 eb 12 bd
       -0.04685911 0.06716903 -0.00849248 -0.0358693
000170 50 f4 a7 bd f9 cc a5 3c 08 1f 84 3d 38 70 90 bc
       -0.08200896 0.02023934 0.06451231 -0.017631635
000180 13 fd 0b 3d 51 9f a3 bd 0e b3 64 3d 57 59 82 bd
       0.034176897 -0.079893716 0.055834822 -0.063646965
000190 3f 6f a7 bd d7 45 41 bd 6c 95 55 3d c5 bb 31 bd
       -0.081755154 -0.047185745 0.052144453 -0.04339196
0001a0 cd af 4f 3b 87 a8 b6 bc eb 14 08 3d bd 7a ae 3a
       0.0031690479 -0.022297157 0.033223074 0.0013311725
0001b0 57 df 40 bd 7d 6e 1f bc db fa 0a bd 3e c4 de bc
       -0.047087993 -0.009730932 -0.03393064 -0.027193185
0001c0 f0 e3 8a bc 5d 4a 05 3d e5 3a c9 3c 5d 25 85 3d
       -0.016954392 0.03254162 0.024564216 0.06501267
0001d0 b1 ba 86 bd a3 5b 12 3d 02 b4 a8 3d e1 fc 14 bd
       -0.06578577 0.035731923 0.08237459 -0.036373977
0001e0 06 fa 77 bd 33 5d 84 bd 39 64 cd 3d 3e 30 51 bd
       -0.060541175 -0.06463089 0.100288816 -0.051071398
0001f0 c6 8f 7e 38 a6 09 88 bd fa 4a 71 bd 70 99 76 3c
       6.069222e-05 -0.06642465 -0.058909394 0.015051231

bn2.weight f4 [128]
000000 00 14 1e 3f 32 df 29 3f 6b 5d 15 3f 76 1c 61 3f
       0.6174927 0.66356194 0.5834567 0.8793405
000010 af 26 45 3f 5d 5b 1f 3f 76 2d 48 3f 1f a2 2f 3f
       0.7701215 0.62248784 0.7819437 0.6860675
000020 23 2a 3d 3f a9 f6 4c 3f d2 d2 17 3f f7 47 1c 3f
       0.7389242 0.80063874 0.5930606 0.6104731
000030 10 b7 51 3f 53 16 2d 3f 0a b6 2c 3f 9e 44 2d 3f
       0.81919956 0.6761219 0.6746527 0.67682827
000040 0f 5c 40 3f 05 8c 35 3f d1 11 59 3f c6 6e 37 3f
       0.7514047 0.7091678 0.8479281 0.716534
000050 e8 e3 12 3f 68 2c 55 3f 2c 76 3f 3f 35 9b 0f 3f
       0.5737901 0.83270884 0.7478969 0.560962
000060 df 2b 34 3f 3c 66 13 3f f4 92 38 3f 5b b8 32 3f
       0.7037944 0.5757787 0.7209923 0.69812554
000070 49 34 25 3f 4d e0 4b 3f cb 95 24 3f 99 4b 58 3f
       0.64532906 0.7963913 0.64291066 0.8449035
000080 dc ff 10 3f 2a 97 2e 3f aa 76 43 3f 50 b8 51 3f
       0.5664041 0.6819941 0.7635294 0.81921864
000090 0a 9c 13 3f 2c 29 2a 3f 5e 9a 11 3f 8f 5e 17 3f
       0.5765997 0.66469073 0.5687617 0.5912866
0000a0 4b 19 30 3f f5 c0 48 3f 36 17 3c 3f e0 5b 29 3f
       0.68788594 0.7841943 0.7347292 0.66155815
0000b0 f5 20 37 3f 90 82 3a 3f e3 5b 3c 3f 0a 32 1c 3f
       0.71534663 0.7285547 0.7357771 0.61013854
0000c0 c4 20 1e 3f d0 e8 25 3f 10 48 22 3f ef 7e 41 3f
       0.61768746 0.6480837 0.6339121 0.7558431
0000d0 58 6a 2a 3f 12 32 47 3f d0 f0 1c 3f 33 a4 13 3f
       0.6656852 0.77810776 0.6130495 0.57672423
0000e0 0a a6 2c 3f 5c 46 57 3f 27 3a 47 3f 6d 11 2f 3f
       0.67440856 0.84091735 0.7782311 0.68385965
0000f0 aa 62 31 3f e7 3f 3c 3f 56 8f 36 3f e8 24 34 3f
       0.69291174 0.7353501 0.71312463 0.70368814
000100 a8 84 33 3f 14 5d 4c 3f 56 1e 2b 3f e0 b2 39 3f
       0.7012429 0.79829526 0.66843164 0.72538567
000110 cb ab 1e 3f 0a c7 32 3f 5e b7 47 3f 86 2c 2f 3f
       0.61980885 0.6983496 0.7801417 0.6842731
000120 22 fc 16 3f 20 47 22 3f a8 41 4d 3f 66 d1 16 3f
       0.58978474 0.6338978 0.8017831 0.58913267
000130 ba 52 25 3f 66 45 1d 3f 22 86 21 3f ce ff 22 3f
       0.64579356 0.6143402 0.63095295 0.63671577
000140 c4 86 25 3f 3d 74 2a 3f d0 17 16 3f 28 66 4a 3f
       0.6465876 0.66583616 0.58630085 0.7906213
000150 81 3c 3f 3f 70 10 32 3f 4b 7d 1d 3f 1a ab 39 3f
       0.74701697 0.6955633 0.61519307 0.72526705
000160 68 d7 52 3f 5b 61 3b 3f 55 91 35 3f 9e 82 4c 3f
       0.82359934 0.7319543 0.70924884 0.79886806
000170 93 6e 36 3f 9c 0b 41 3f 46 07 25 3f 9f d4 54 3f
       0.7126247 0.7540834 0.64464223 0.83136934
000180 df 94 11 3f 01 46 21 3f 40 e9 42 3f dd 11 48 3f
       0.56867784 0.6299744 0.7613716 0.7815226
000190 ee b8 3c 3f 5e 23 1c 3f 04 0b 39 3f 1a 52 60 3f
       0.7371968 0.60991466 0.72282434 0.8762528
0001a0 e2 e3 41 3f f7 4c 38 3f 5a 14 1e 3f 50 e7 2c 3f
       0.75738347 0.7199244 0.61749804 0.67540455
0001b0 8f e1 5a 3f 9e 47 44 3f e1 d3 6a 3f 76 47 41 3f
       0.85500425 0.7667178 0.9172955 0.75499666
0001c0 47 3f 34 3f 57 6d 23 3f 22 16 1c 3f 71 63 35 3f
       0.70409054 0.63838714 0.6097127 0.7085486
0001d0 3f 85 1d 3f ac 14 46 3f 5e a6 23 3f 7f c8 3c 3f
       0.6153144 0.7737529 0.6392573 0.7374343
0001e0 eb 5c 3c 3f 9f 3f 3b 3f 63 65 37 3f 8b 1b 2b 3f
       0.7357928 0.73143953 0.7163908 0.668389
0001f0 b0 3b 2f 3f cc cb 32 3f b0 76 2f 3f 37 b5 41 3f
       0.6845045 0.6984222 0.6854048 0.75667137

bn2.bias f4 [128]
000000 30 14 6a bf 9b 60 28 bf 3a 29 5c bf 72 19 f9 bd
       -0.91437054 -0.6577241 -0.86000407 -0.121630564
000010 62 6a de be 17 70 4f bf 22 cb fc be b4 89 46 bf
       -0.4344054 -0.8103041 -0.49373728 -0.7755387
000020 58 0b 22 bf 69 e2 af be 27 ae 4e bf d9 10 4e bf
       -0.6329856 -0.34352425 -0.80734485 -0.8049446
000030 1b aa ef be f6 69 44 bf 47 6c 4c bf bb ff 25 bf
       -0.46809468 -0.76724184 -0.7985272 -0.6484334
000040 ec 99 f7 be c5 b8 34 bf 9a 15 f7 be 3e 09 04 bf
       -0.4835962 -0.70594436 -0.48258668 -0.515766
000050 c2 4c 5e bf 8d 88 e4 be 2c d1 17 bf 16 f4 5d bf
       -0.86835873 -0.4463543 -0.59303546 -0.8670057
000060 3a 37 39 bf 3a e4 52 bf 7f c1 1f bf 95 85 17 bf
       -0.72349894 -0.82379496 -0.62404627 -0.59188205
000070 04 a8 45 bf 31 27 21 bf bb e8 4a bf b9 0c 39 be
       -0.77209496 -0.62950426 -0.7926137 -0.1807126
000080 a7 b3 4b bf 7c e6 0f bf a3 c5 ff be 26 2c 22 bf
       -0.79571 -0.56211066 -0.49955472 -0.63348615
000090 80 9d 5f bf 92 0a 2b bf 2e 14 6b bf 1a c3 47 bf
       -0.873497 -0.66813004 -0.91827667 -0.78032076
0000a0 95 9a 35 bf 4c 09 02 bf f7 ea 1f bf b3 ba 41 bf
       -0.70939 -0.50795436 -0.624679 -0.75675505
0000b0 ca 73 29 bf b7 b5 2f bf 8d da 26 bf 23 45 4f bf
       -0.66192305 -0.6863665 -0.6517723 -0.8096487
0000c0 11 01 3b bf 16 67 38 bf d3 d7 1c bf ce f4 0b bf
       -0.730485 -0.72032297 -0.6126682 -0.5467042
0000d0 1a a8 2b bf 5d 53 ff be 0c f0 41 bf f3 f2 4b bf
       -0.6705338 -0.4986829 -0.7575691 -0.79667586
0000e0 d9 50 2c bf 6a 8b 0d bf 13 2a 10 bf 5b 25 48 bf
       -0.67310864 -0.55290854 -0.563142 -0.78182
0000f0 6f cf 1d bf 35 92 08 bf 79 f8 30 bf 94 81 33 bf
       -0.61644644 -0.53348094 -0.6912914 -0.70119596
000100 92 f9 18 bf 75 67 1d bf 97 4d 4c bf ec ac c3 be
       -0.59755814 -0.6148599 -0.7980589 -0.38217866
000110 3d 3b 3e bf 12 aa 3d bf 29 46 29 bf d6 54 2b bf
       -0.7430914 -0.7408763 -0.6612268 -0.66926324
000120 97 a9 46 bf 7f 20 42 bf 7e ce 07 bf ed a7 51 bf
       -0.77602524 -0.75830835 -0.5304946 -0.8189686
000130 9e c4 53 bf 07 7a 45 bf 58 89 49 bf 9e 64 45 bf
       -0.8272189 -0.77139324 -0.78725195 -0.77106655
000140 11 6e 53 bf d3 da 39 bf ae 19 3f bf ac 79 0e bf
       -0.82589823 -0.72599524 -0.7464856 -0.55654407
000150 b0 d5 24 bf be f2 3b bf 43 8a 5b bf 95 22 25 bf
       -0.6438856 -0.7341727 -0.85757846 -0.64505893
000160 4f 8c 05 bf 29 b8 0c bf 8d 98 27 bf f6 9c fa be
       -0.5216722 -0.54968506 -0.6546715 -0.48947877
000170 61 6f 43 bf 9c 8c 17 bf b9 e6 41 bf 0c 32 06 bf
       -0.76341826 -0.5919893 -0.7574268 -0.52420115
000180 c7 7b 49 bf 93 e1 4b bf 43 0c 17 bf be 24 07 bf
       -0.78704494 -0.79641074 -0.59003085 -0.5279044
000190 fb f8 47 bf 8c 96 45 bf 96 06 20 bf 5e 6f 47 be
       -0.7811429 -0.7718284 -0.6251005 -0.19476077
0001a0 f4 75 26 bf ce a1 3a bf 86 41 05 bf 69 fc 2a bf
       -0.6502373 -0.72903144 -0.52053106 -0.667914
0001b0 a3 13 4f be 36 d6 ad be 27 a0 d7 be 7e cf ea be
       -0.20222335 -0.33952492 -0.42114374 -0.4586143
0001c0 a5 fb 3d bf 1a 87 2e bf 08 76 42 bf 20 0e 33 bf
       -0.74212104 -0.681749 -0.7596135 -0.6994343
0001d0 a7 23 42 bf 0e 15 29 bf e4 9e 5c bf 55 60 23 bf
       -0.7583565 -0.6604775 -0.8617995 -0.63818866
0001e0 c9 a9 25 bf 2e 84 2d bf 8f 4c 10 bf 26 4f 2b bf
       -0.64712197 -0.67779815 -0.5636682 -0.66917646
0001f0 ad 86 44 bf 17 93 30 bf 9d 47 34 bf 3c 01 13 bf
       -0.76768 -0.6897444 -0.70421773 -0.5742376

bn2.running_mean f4 [128]
000000 25 27 52 bf 41 72 91 3d a5 13 e4 bf e1 ae 76 3e
       -0.8209098 0.0710187 -1.7818495 0.24090149
000010 a5 12 55 bf 9d 15 b0 bf 82 27 30 bf 2e a9 e1 bf
       -0.83231574 -1.3756596 -0.68810284 -1.7629755
000020 b3 f2 ae bf de e1 09 bf ff b4 4a c0 8c 92 08 3f
       -1.3667816 -0.5386027 -3.1672971 0.5334861
000030 32 f4 06 bf c3 3e 58 c0 f8 89 52 c0 17 90 0e bf
       -0.5271636 -3.3788307 -3.289671 -0.55688614
000040 ad ed e5 bf ce 0f d0 bf 68 50 0f c0 8d 64 c2 3f
       -1.7963158 -1.6254823 -2.2392826 1.5186936
000050 9a 62 97 bf a8 5b 51 bf 6d 2f 39 c0 74 7c e0 bf
       -1.1826966 -0.8178048 -2.8935196 -1.753798
000060 da 03 51 c0 e6 2b cd bf 5b 2e d1 3e ec 97 30 bf
       -3.26586 -1.6029022 0.4085568 -0.68981814
000070 66 a3 f1 bf fa 38 c4 3f 37 2b 40 be 84 c6 ea 3e
       -1.887799 1.5329888 -0.18766485 0.4585458
000080 40 17 81 bb cb 41 3b bf 78 58 ef bf e9 f9 c2 bf
       -0.003939539 -0.7314727 -1.8698874 -1.5232517
000090 9a f1 06 c0 e0 55 01 3c 47 d2 06 c0 70 97 05 c0
       -2.1084962 0.007894009 -2.1065843 -2.087368
0000a0 b9 d8 df bf 0c f9 21 c0 41 d4 e7 bf b3 14 98 bf
       -1.7488014 -2.5308256 -1.811165 -1.1881317
0000b0 bb 2d e5 bf 6a a3 f8 bf b5 5e f9 bf 7d a0 d8 bf
       -1.7904581 -1.942487 -1.9482027 -1.6923977
0000c0 86 31 3a c0 bc 62 78 bf 64 c7 9f bf c1 da 4a 3f
       -2.9092727 -0.97025657 -1.2482724 0.7924004
0000d0 8f 13 20 bf e1 2a ed bf f3 48 8c 3f 69 65 24 c0
       -0.62529844 -1.8528711 1.0959762 -2.5686896
0000e0 d5 a4 d9 bf 45 56 f9 be 1e 13 ef bf c6 16 c3 be
       -1.7003428 -0.4869863 -1.8677709 -0.38103312
0000f0 e5 63 b3 bf ed 49 3f bd b8 eb 01 c0 88 92 a3 bf
       -1.401486 -0.04670136 -2.0300121 -1.2779093
000100 8e e6 c9 bf 1e 9f 92 be 54 b3 c7 bf d1 be 0b be
       -1.5773485 -0.28637022 -1.5601602 -0.1364701
000110 f6 d8 f9 bf 06 0c 2b c0 eb e4 28 c0 db b1 23 c0
       -1.9519336 -2.6726089 -2.638972 -2.5577304
000120 a7 53 20 c0 72 e0 e3 bf 95 73 72 3b 3d fb 2a c0
       -2.5051057 -1.780287 0.0036995162 -2.6715844
000130 1b cd 35 c0 a1 9b 6e bf e4 ba 60 c0 5b 73 16 bf
       -2.8406436 -0.9320622 -3.511407 -0.5876977
000140 19 c6 c7 bf e6 9d 25 c0 c8 75 11 3f 3d 40 24 3d
       -1.560733 -2.5877624 0.56820345 0.040100325
000150 fb a7 87 bf a9 36 08 c0 97 88 af bf 5b 6e 9a bf
       -1.0598139 -2.1283362 -1.3713559 -1.2064928
000160 8c c2 53 3f 7d a1 1e 3f 37 3e da bf c3 bb b4 3e
       0.8271873 0.6196516 -1.7050236 0.352995
000170 8b 61 31 c0 45 38 44 bf 04 7e aa 3f 49 b8 d5 3e
       -2.7715786 -0.7664836 1.3319707 0.4174216
000180 71 13 27 c0 59 2f 21 bf 2d d1 0d be 27 df ef bf
       -2.6105616 -0.6296287 -0.13849325 -1.8739976
000190 7b 72 0f c0 59 e2 47 c0 88 e2 80 bf 65 c2 54 3f
       -2.2413623 -3.1231902 -1.0069132 0.8310912
0001a0 0b e7 22 c0 74 0b fa bf c4 5e 31 c0 6d fd 42 bf
       -2.5453517 -1.9534745 -2.771409 -0.7616795
0001b0 6b 45 92 3f 35 d9 da be 31 13 9d 3f f7 04 1d 3f
       1.1427435 -0.4274384 1.2271482 0.613357
0001c0 7a 86 8f bf 8c 83 f8 bd 87 8d 2c c0 ff 38 07 c0
       -1.1212914 -0.121344656 -2.6961381 -2.1128538
0001d0 34 88 23 bf 68 e0 76 bf 0e f8 20 bf 34 67 2c c0
       -0.63879704 -0.96436167 -0.628785 -2.693799
0001e0 8c 86 31 c0 3a c3 64 bf 23 3a 51 bf 98 d2 32 c0
       -2.773837 -0.8936039 -0.81729335 -2.7941036
0001f0 28 21 b7 bf d6 0e 02 c0 02 c8 e6 bf 9f e3 09 bf
       -1.4306993 -2.0321555 -1.8029788 -0.5386295

bn2.running_var f4 [128]
000000 1e 4d 53 40 76 00 5b 40 f5 64 82 40 17 d5 9d 40
       3.3015819 3.4219031 4.074824 4.932262
000010 49 63 08 40 02 be 4d 40 21 0f 18 40 5b ce 79 40
       2.13106 3.2147222 2.3759234 3.90322
000020 6b 79 0b 40 ed dc 24 40 8f a8 79 40 25 ea 4f 40
       2.1792858 2.5759842 3.900913 3.248666
000030 93 af df 3f 77 e5 8a 40 72 5c 3c 40 1b 45 29 40
       1.7475456 4.340511 2.9431424 2.6448429
000040 67 4f 55 40 b2 8b b6 40 a6 78 43 40 7b e8 e6 3f
       3.3329713 5.7045527 3.0542388 1.8039697
000050 b3 b9 85 40 ff c0 b2 40 f4 d0 1b 40 2d 90 0f 40
       4.1789184 5.586059 2.4346285 2.2431748
000060 9a 34 64 40 93 f4 48 40 93 d1 32 40 13 01 0b 40
       3.5657105 3.1399276 2.7940414 2.1719406
000070 de ef 55 40 77 21 25 40 8b a9 84 40 ba a8 a1 40
       3.3427653 2.5801675 4.145696 5.0518465
000080 0e d3 46 40 92 25 2e 40 e9 1e 32 40 ca ee a3 40
       3.1066318 2.721043 2.7831366 5.122899
000090 03 c5 40 40 c9 d2 42 40 4b 54 84 40 8d 9d 57 40
       3.0120246 3.0441153 4.1352897 3.3689911
0000a0 75 bc 3e 40 ab 03 2d 40 0e 06 75 40 5c 2b 8e 40
       2.9802525 2.7033489 3.8284945 4.442793
0000b0 67 da 44 40 1f d8 27 40 2d 2a 31 40 0e 9e 56 40
       3.0758302 2.622566 2.7681992 3.353397
0000c0 ee 4a 6a 40 f9 74 7b 40 eb 8c 29 40 8c 0f 09 40
       3.6608233 3.9290144 2.649226 2.141574
0000d0 d9 d4 fd 3f cf d5 09 40 46 64 1b 40 2b f5 5e 40
       1.9830581 2.1536748 2.4279952 3.4837139
0000e0 14 93 16 40 96 4a 40 40 af 37 91 40 b2 01 58 40
       2.352727 3.0045524 4.5380473 3.3751035
0000f0 cf 75 fe 3f 32 d6 03 40 d3 ee ba 40 81 fe 2a 40
       1.9879702 2.0599484 5.8416533 2.6717837
000100 6e f6 16 40 99 ac 0e 40 bc c0 87 40 ee 92 43 40
       2.3587909 2.2292845 4.242277 3.0558429
000110 33 ab 32 40 93 7a 2f 40 c6 72 08 41 bd 10 b7 40
       2.7916992 2.7418563 8.528021 5.7207932
000120 80 20 3e 40 84 cd 20 40 58 b8 18 40 e0 45 ea 3f
       2.9707336 2.5125437 2.3862514 1.8302574
000130 4d 22 76 40 28 f0 5d 40 59 ee 96 40 92 9f 08 40
       3.8458436 3.467783 4.716595 2.1347394
000140 3b 52 8b 40 8c 30 c2 40 3e ab d6 3f 73 17 19 40
       4.353788 6.068426 1.6771009 2.3920562
000150 65 f4 cd 40 e0 d4 51 40 68 47 93 40 fc fa 38 40
       6.4360833 3.2786179 4.6024666 2.8903189
000160 fe f9 53 40 5b 91 ca 3f 79 ad 1a 40 95 b6 24 40
       3.3121333 1.5825609 2.416838 2.573644
000170 b5 f7 ab 40 f1 9e 02 40 a2 8f 03 40 86 fd 29 40
       5.3739877 2.040951 2.0556417 2.6560988
000180 d3 01 51 40 10 c0 96 40 8c 4c 3d 40 52 dd 5e 40
       3.2657363 4.710945 2.957797 3.4822583
000190 55 56 c3 40 8c 01 2e 40 71 c2 29 40 80 10 a1 40
       6.1042886 2.7188444 2.6524928 5.033264
0001a0 ea 85 06 40 f8 e5 c0 40 a4 5f 59 40 80 53 13 40
       2.1019235 6.0280724 3.3964624 2.3019714
0001b0 a2 29 95 40 53 d1 1e 40 f3 41 84 40 df d1 2a 40
       4.661332 2.4815261 4.1330504 2.6690595
0001c0 c7 1a 96 40 a5 3a 3d 40 ed 2b 4b 40 4e d5 77 40
       4.6907687 2.9567044 3.174556 3.872394
0001d0 11 03 24 40 6b eb 52 40 0a c1 9c 40 70 62 2b 40
       2.5626872 3.2956188 4.8985643 2.6778831
0001e0 a5 90 53 40 e2 c0 21 40 64 2b 08 40 51 71 27 40
       3.3057034 2.5273976 2.1276484 2.6162913
0001f0 77 75 a8 40 f3 6d f9 3f 14 63 9e 40 17 a4 e4 3f
       5.264339 1.9486679 4.9495945 1.7862576
